…
snapshot: 0
snapshot_prefix: "resnet101_rfcn_ohem"
iter_size: 2
I0509 19:53:06.779930  4089 solver.cpp:81] Creating training net from train_net file: models/pascal_voc/ResNet-101/rfcn_end2end/train_agnostic_ohem.prototxt
I0509 19:53:06.793423  4089 net.cpp:58] Initializing net from parameters: 
name: "ResNet-101"
state {
  phase: TRAIN
}
layer {
  name: "input-data"
  type: "Python"
  top: "data"
  top: "im_info"
  top: "gt_boxes"
  python_param {
    module: "roi_data_layer.layer"
    layer: "RoIDataLayer"
    param_str: "\'num_classes\': 21"
  }
}
layer {
  name: "conv1"
  type: "Convolution"
  bottom: "data"
  top: "conv1"
  param {
    lr_mult: 0
  }
  convolution_param {
    num_output: 64
    bias_term: false
    pad: 3
    kernel_size: 7
    stride: 2
  }
}
layer {
  name: "bn_conv1"
  type: "BatchNorm"
  bottom: "conv1"
  top: "conv1"
  param {
    lr_mult: 0
    decay_mult: 0
  }
  param {
    lr_mult: 0
    decay_mult: 0
  }
  param {
    lr_mult: 0
    decay_mult: 0
  }
  batch_norm_param {
    use_global_stats: true
  }
}
layer {
  name: "scale_conv1"
  type: "Scale"
  bottom: "conv1"
  top: "conv1"
  param {
    lr_mult: 0
    decay_mult: 0
  }
  param {
    lr_mult: 0
    decay_mult: 0
  }
  scale_param {
    bias_term: true
  }
}
layer {
  name: "conv1_relu"
  type: "ReLU"
  bottom: "conv1"
  top: "conv1"
}
layer {
  name: "pool1"
  type: "Pooling"
  bottom: "conv1"
  top: "pool1"
  pooling_param {
    pool: MAX
    kernel_size: 3
    stride: 2
  }
}
layer {
  name: "res2a_branch1"
  type: "Convolution"
  bottom: "pool1"
  top: "res2a_branch1"
  param {
    lr_mult: 0
  }
  convolution_param {
    num_output: 256
    bias_term: false
    pad: 0
    kernel_size: 1
    stride: 1
  }
}
layer {
  name: "bn2a_branch1"
  type: "BatchNorm"
  bottom: "res2a_branch1"
  top: "res2a_branch1"
  param {
    lr_mult: 0
    decay_mult: 0
  }
  param {
    lr_mult: 0
    decay_mult: 0
  }
  param {
    lr_mult: 0
    decay_mult: 0
  }
  batch_norm_param {
    use_global_stats: true
  }
}
layer {
  name: "scale2a_branch1"
  type: "Scale"
  bottom: "res2a_branch1"
  top: "res2a_branch1"
  param {
    lr_mult: 0
    decay_mult: 0
  }
  param {
    lr_mult: 0
    decay_mult: 0
  }
  scale_param {
    bias_term: true
  }
}
layer {
  name: "res2a_branch2a"
  type: "Convolution"
  bottom: "pool1"
  top: "res2a_branch2a"
  param {
    lr_mult: 0
  }
  convolution_param {
    num_output: 64
    bias_term: false
    pad: 0
    kernel_size: 1
    stride: 1
  }
}
layer {
  name: "bn2a_branch2a"
  type: "BatchNorm"
  bottom: "res2a_branch2a"
  top: "res2a_branch2a"
  param {
    lr_mult: 0
    decay_mult: 0
  }
  param {
    lr_mult: 0
    decay_mult: 0
  }
  param {
    lr_mult: 0
    decay_mult: 0
  }
  batch_norm_param {
    use_global_stats: true
  }
}
layer {
  name: "scale2a_branch2a"
  type: "Scale"
  bottom: "res2a_branch2a"
  top: "res2a_branch2a"
  param {
    lr_mult: 0
    decay_mult: 0
  }
  param {
    lr_mult: 0
    decay_mult: 0
  }
  scale_param {
    bias_term: true
  }
}
layer {
  name: "res2a_branch2a_relu"
  type: "ReLU"
  bottom: "res2a_branch2a"
  top: "res2a_branch2a"
}
layer {
  name: "res2a_branch2b"
  type: "Convolution"
  bottom: "res2a_branch2a"
  top: "res2a_branch2b"
  param {
    lr_mult: 0
  }
  convolution_param {
    num_output: 64
    bias_term: false
    pad: 1
    kernel_size: 3
    stride: 1
  }
}
layer {
  name: "bn2a_branch2b"
  type: "BatchNorm"
  bottom: "res2a_branch2b"
  top: "res2a_branch2b"
  param {
    lr_mult: 0
    decay_mult: 0
  }
  param {
    lr_mult: 0
    decay_mult: 0
  }
  param {
    lr_mult: 0
    decay_mult: 0
  }
  batch_norm_param {
    use_global_stats: true
  }
}
layer {
  name: "scale2a_branch2b"
  type: "Scale"
  bottom: "res2a_branch2b"
  top: "res2a_branch2b"
  param {
    lr_mult: 0
    decay_mult: 0
  }
  param {
    lr_mult: 0
    decay_mult: 0
  }
  scale_param {
    bias_term: true
  }
}
layer {
  name: "res2a_branch2b_relu"
  type: "ReLU"
  bottom: "res2a_branch2b"
  top: "res2a_branch2b"
}
layer {
  name: "res2a_branch2c"
  type: "Convolution"
  bottom: "res2a_branch2b"
  top: "res2a_branch2c"
  param {
    lr_mult: 0
  }
  convolution_param {
    num_output: 256
    bias_term: false
    pad: 0
    kernel_size: 1
    stride: 1
  }
}
layer {
  name: "bn2a_branch2c"
  type: "BatchNorm"
  bottom: "res2a_branch2c"
  top: "res2a_branch2c"
  param {
    lr_mult: 0
    decay_mult: 0
  }
  param {
    lr_mult: 0
    decay_mult: 0
  }
  param {
    lr_mult: 0
    decay_mult: 0
  }
  batch_norm_param {
    use_global_stats: true
  }
}
layer {
  name: "scale2a_branch2c"
  type: "Scale"
  bottom: "res2a_branch2c"
  top: "res2a_branch2c"
  param {
    lr_mult: 0
    decay_mult: 0
  }
  param {
    lr_mult: 0
    decay_mult: 0
  }
  scale_param {
    bias_term: true
  }
}
layer {
  name: "res2a"
  type: "Eltwise"
  bottom: "res2a_branch1"
  bottom: "res2a_branch2c"
  top: "res2a"
}
layer {
  name: "res2a_relu"
  type: "ReLU"
  bottom: "res2a"
  top: "res2a"
}
layer {
  name: "res2b_branch2a"
  type: "Convolution"
  bottom: "res2a"
  top: "res2b_branch2a"
  param {
    lr_mult: 0
  }
  convolution_param {
    num_output: 64
    bias_term: false
    pad: 0
    kernel_size: 1
    stride: 1
  }
}
layer {
  name: "bn2b_branch2a"
  type: "BatchNorm"
  bottom: "res2b_branch2a"
  top: "res2b_branch2a"
  param {
    lr_mult: 0
    decay_mult: 0
  }
  param {
    lr_mult: 0
    decay_mult: 0
  }
  param {
    lr_mult: 0
    decay_mult: 0
  }
  batch_norm_param {
    use_global_stats: true
  }
}
layer {
  name: "scale2b_branch2a"
  type: "Scale"
  bottom: "res2b_branch2a"
  top: "res2b_branch2a"
  param {
    lr_mult: 0
    decay_mult: 0
  }
  param {
    lr_mult: 0
    decay_mult: 0
  }
  scale_param {
    bias_term: true
  }
}
layer {
  name: "res2b_branch2a_relu"
  type: "ReLU"
  bottom: "res2b_branch2a"
  top: "res2b_branch2a"
}
layer {
  name: "res2b_branch2b"
  type: "Convolution"
  bottom: "res2b_branch2a"
  top: "res2b_branch2b"
  param {
    lr_mult: 0
  }
  convolution_param {
    num_output: 64
    bias_term: false
    pad: 1
    kernel_size: 3
    stride: 1
  }
}
layer {
  name: "bn2b_branch2b"
  type: "BatchNorm"
  bottom: "res2b_branch2b"
  top: "res2b_branch2b"
  param {
    lr_mult: 0
    decay_mult: 0
  }
  param {
    lr_mult: 0
    decay_mult: 0
  }
  param {
    lr_mult: 0
    decay_mult: 0
  }
  batch_norm_param {
    use_global_stats: true
  }
}
layer {
  name: "scale2b_branch2b"
  type: "Scale"
  bottom: "res2b_branch2b"
  top: "res2b_branch2b"
  param {
    lr_mult: 0
    decay_mult: 0
  }
  param {
    lr_mult: 0
    decay_mult: 0
  }
  scale_param {
    bias_term: true
  }
}
layer {
  name: "res2b_branch2b_relu"
  type: "ReLU"
  bottom: "res2b_branch2b"
  top: "res2b_branch2b"
}
layer {
  name: "res2b_branch2c"
  type: "Convolution"
  bottom: "res2b_branch2b"
  top: "res2b_branch2c"
  param {
    lr_mult: 0
  }
  convolution_param {
    num_output: 256
    bias_term: false
    pad: 0
    kernel_size: 1
    stride: 1
  }
}
layer {
  name: "bn2b_branch2c"
  type: "BatchNorm"
  bottom: "res2b_branch2c"
  top: "res2b_branch2c"
  param {
    lr_mult: 0
    decay_mult: 0
  }
  param {
    lr_mult: 0
    decay_mult: 0
  }
  param {
    lr_mult: 0
    decay_mult: 0
  }
  batch_norm_param {
    use_global_stats: true
  }
}
layer {
  name: "scale2b_branch2c"
  type: "Scale"
  bottom: "res2b_branch2c"
  top: "res2b_branch2c"
  param {
    lr_mult: 0
    decay_mult: 0
  }
  param {
    lr_mult: 0
    decay_mult: 0
  }
  scale_param {
    bias_term: true
  }
}
layer {
  name: "res2b"
  type: "Eltwise"
  bottom: "res2a"
  bottom: "res2b_branch2c"
  top: "res2b"
}
layer {
  name: "res2b_relu"
  type: "ReLU"
  bottom: "res2b"
  top: "res2b"
}
layer {
  name: "res2c_branch2a"
  type: "Convolution"
  bottom: "res2b"
  top: "res2c_branch2a"
  param {
    lr_mult: 0
  }
  convolution_param {
    num_output: 64
    bias_term: false
    pad: 0
    kernel_size: 1
    stride: 1
  }
}
layer {
  name: "bn2c_branch2a"
  type: "BatchNorm"
  bottom: "res2c_branch2a"
  top: "res2c_branch2a"
  param {
    lr_mult: 0
    decay_mult: 0
  }
  param {
    lr_mult: 0
    decay_mult: 0
  }
  param {
    lr_mult: 0
    decay_mult: 0
  }
  batch_norm_param {
    use_global_stats: true
  }
}
layer {
  name: "scale2c_branch2a"
  type: "Scale"
  bottom: "res2c_branch2a"
  top: "res2c_branch2a"
  param {
    lr_mult: 0
    decay_mult: 0
  }
  param {
    lr_mult: 0
    decay_mult: 0
  }
  scale_param {
    bias_term: true
  }
}
layer {
  name: "res2c_branch2a_relu"
  type: "ReLU"
  bottom: "res2c_branch2a"
  top: "res2c_branch2a"
}
layer {
  name: "res2c_branch2b"
  type: "Convolution"
  bottom: "res2c_branch2a"
  top: "res2c_branch2b"
  param {
    lr_mult: 0
  }
  convolution_param {
    num_output: 64
    bias_term: false
    pad: 1
    kernel_size: 3
    stride: 1
  }
}
layer {
  name: "bn2c_branch2b"
  type: "BatchNorm"
  bottom: "res2c_branch2b"
  top: "res2c_branch2b"
  param {
    lr_mult: 0
    decay_mult: 0
  }
  param {
    lr_mult: 0
    decay_mult: 0
  }
  param {
    lr_mult: 0
    decay_mult: 0
  }
  batch_norm_param {
    use_global_stats: true
  }
}
layer {
  name: "scale2c_branch2b"
  type: "Scale"
  bottom: "res2c_branch2b"
  top: "res2c_branch2b"
  param {
    lr_mult: 0
    decay_mult: 0
  }
  param {
    lr_mult: 0
    decay_mult: 0
  }
  scale_param {
    bias_term: true
  }
}
layer {
  name: "res2c_branch2b_relu"
  type: "ReLU"
  bottom: "res2c_branch2b"
  top: "res2c_branch2b"
}
layer {
  name: "res2c_branch2c"
  type: "Convolution"
  bottom: "res2c_branch2b"
  top: "res2c_branch2c"
  param {
    lr_mult: 0
  }
  convolution_param {
    num_output: 256
    bias_term: false
    pad: 0
    kernel_size: 1
    stride: 1
  }
}
layer {
  name: "bn2c_branch2c"
  type: "BatchNorm"
  bottom: "res2c_branch2c"
  top: "res2c_branch2c"
  param {
    lr_mult: 0
    decay_mult: 0
  }
  param {
    lr_mult: 0
    decay_mult: 0
  }
  param {
    lr_mult: 0
    decay_mult: 0
  }
  batch_norm_param {
    use_global_stats: true
  }
}
layer {
  name: "scale2c_branch2c"
  type: "Scale"
  bottom: "res2c_branch2c"
  top: "res2c_branch2c"
  param {
    lr_mult: 0
    decay_mult: 0
  }
  param {
    lr_mult: 0
    decay_mult: 0
  }
  scale_param {
    bias_term: true
  }
}
layer {
  name: "res2c"
  type: "Eltwise"
  bottom: "res2b"
  bottom: "res2c_branch2c"
  top: "res2c"
}
layer {
  name: "res2c_relu"
  type: "ReLU"
  bottom: "res2c"
  top: "res2c"
}
layer {
  name: "res3a_branch1"
  type: "Convolution"
  bottom: "res2c"
  top: "res3a_branch1"
  param {
    lr_mult: 1
  }
  convolution_param {
    num_output: 512
    bias_term: false
    pad: 0
    kernel_size: 1
    stride: 2
  }
}
layer {
  name: "bn3a_branch1"
  type: "BatchNorm"
  bottom: "res3a_branch1"
  top: "res3a_branch1"
  param {
    lr_mult: 0
    decay_mult: 0
  }
  param {
    lr_mult: 0
    decay_mult: 0
  }
  param {
    lr_mult: 0
    decay_mult: 0
  }
  batch_norm_param {
    use_global_stats: true
  }
}
layer {
  name: "scale3a_branch1"
  type: "Scale"
  bottom: "res3a_branch1"
  top: "res3a_branch1"
  param {
    lr_mult: 0
    decay_mult: 0
  }
  param {
    lr_mult: 0
    decay_mult: 0
  }
  scale_param {
    bias_term: true
  }
}
layer {
  name: "res3a_branch2a"
  type: "Convolution"
  bottom: "res2c"
  top: "res3a_branch2a"
  param {
    lr_mult: 1
  }
  convolution_param {
    num_output: 128
    bias_term: false
    pad: 0
    kernel_size: 1
    stride: 2
  }
}
layer {
  name: "bn3a_branch2a"
  type: "BatchNorm"
  bottom: "res3a_branch2a"
  top: "res3a_branch2a"
  param {
    lr_mult: 0
    decay_mult: 0
  }
  param {
    lr_mult: 0
    decay_mult: 0
  }
  param {
    lr_mult: 0
    decay_mult: 0
  }
  batch_norm_param {
    use_global_stats: true
  }
}
layer {
  name: "scale3a_branch2a"
  type: "Scale"
  bottom: "res3a_branch2a"
  top: "res3a_branch2a"
  param {
    lr_mult: 0
    decay_mult: 0
  }
  param {
    lr_mult: 0
    decay_mult: 0
  }
  scale_param {
    bias_term: true
  }
}
layer {
  name: "res3a_branch2a_relu"
  type: "ReLU"
  bottom: "res3a_branch2a"
  top: "res3a_branch2a"
}
layer {
  name: "res3a_branch2b"
  type: "Convolution"
  bottom: "res3a_branch2a"
  top: "res3a_branch2b"
  param {
    lr_mult: 1
  }
  convolution_param {
    num_output: 128
    bias_term: false
    pad: 1
    kernel_size: 3
    stride: 1
  }
}
layer {
  name: "bn3a_branch2b"
  type: "BatchNorm"
  bottom: "res3a_branch2b"
  top: "res3a_branch2b"
  param {
    lr_mult: 0
    decay_mult: 0
  }
  param {
    lr_mult: 0
    decay_mult: 0
  }
  param {
    lr_mult: 0
    decay_mult: 0
  }
  batch_norm_param {
    use_global_stats: true
  }
}
layer {
  name: "scale3a_branch2b"
  type: "Scale"
  bottom: "res3a_branch2b"
  top: "res3a_branch2b"
  param {
    lr_mult: 0
    decay_mult: 0
  }
  param {
    lr_mult: 0
    decay_mult: 0
  }
  scale_param {
    bias_term: true
  }
}
layer {
  name: "res3a_branch2b_relu"
  type: "ReLU"
  bottom: "res3a_branch2b"
  top: "res3a_branch2b"
}
layer {
  name: "res3a_branch2c"
  type: "Convolution"
  bottom: "res3a_branch2b"
  top: "res3a_branch2c"
  param {
    lr_mult: 1
  }
  convolution_param {
    num_output: 512
    bias_term: false
    pad: 0
    kernel_size: 1
    stride: 1
  }
}
layer {
  name: "bn3a_branch2c"
  type: "BatchNorm"
  bottom: "res3a_branch2c"
  top: "res3a_branch2c"
  param {
    lr_mult: 0
    decay_mult: 0
  }
  param {
    lr_mult: 0
    decay_mult: 0
  }
  param {
    lr_mult: 0
    decay_mult: 0
  }
  batch_norm_param {
    use_global_stats: true
  }
}
layer {
  name: "scale3a_branch2c"
  type: "Scale"
  bottom: "res3a_branch2c"
  top: "res3a_branch2c"
  param {
    lr_mult: 0
    decay_mult: 0
  }
  param {
    lr_mult: 0
    decay_mult: 0
  }
  scale_param {
    bias_term: true
  }
}
layer {
  name: "res3a"
  type: "Eltwise"
  bottom: "res3a_branch1"
  bottom: "res3a_branch2c"
  top: "res3a"
}
layer {
  name: "res3a_relu"
  type: "ReLU"
  bottom: "res3a"
  top: "res3a"
}
layer {
  name: "res3b1_branch2a"
  type: "Convolution"
  bottom: "res3a"
  top: "res3b1_branch2a"
  param {
    lr_mult: 1
  }
  convolution_param {
    num_output: 128
    bias_term: false
    pad: 0
    kernel_size: 1
    stride: 1
  }
}
layer {
  name: "bn3b1_branch2a"
  type: "BatchNorm"
  bottom: "res3b1_branch2a"
  top: "res3b1_branch2a"
  param {
    lr_mult: 0
    decay_mult: 0
  }
  param {
    lr_mult: 0
    decay_mult: 0
  }
  param {
    lr_mult: 0
    decay_mult: 0
  }
  batch_norm_param {
    use_global_stats: true
  }
}
layer {
  name: "scale3b1_branch2a"
  type: "Scale"
  bottom: "res3b1_branch2a"
  top: "res3b1_branch2a"
  param {
    lr_mult: 0
    decay_mult: 0
  }
  param {
    lr_mult: 0
    decay_mult: 0
  }
  scale_param {
    bias_term: true
  }
}
layer {
  name: "res3b1_branch2a_relu"
  type: "ReLU"
  bottom: "res3b1_branch2a"
  top: "res3b1_branch2a"
}
layer {
  name: "res3b1_branch2b"
  type: "Convolution"
  bottom: "res3b1_branch2a"
  top: "res3b1_branch2b"
  param {
    lr_mult: 1
  }
  convolution_param {
    num_output: 128
    bias_term: false
    pad: 1
    kernel_size: 3
    stride: 1
  }
}
layer {
  name: "bn3b1_branch2b"
  type: "BatchNorm"
  bottom: "res3b1_branch2b"
  top: "res3b1_branch2b"
  param {
    lr_mult: 0
    decay_mult: 0
  }
  param {
    lr_mult: 0
    decay_mult: 0
  }
  param {
    lr_mult: 0
    decay_mult: 0
  }
  batch_norm_param {
    use_global_stats: true
  }
}
layer {
  name: "scale3b1_branch2b"
  type: "Scale"
  bottom: "res3b1_branch2b"
  top: "res3b1_branch2b"
  param {
    lr_mult: 0
    decay_mult: 0
  }
  param {
    lr_mult: 0
    decay_mult: 0
  }
  scale_param {
    bias_term: true
  }
}
layer {
  name: "res3b1_branch2b_relu"
  type: "ReLU"
  bottom: "res3b1_branch2b"
  top: "res3b1_branch2b"
}
layer {
  name: "res3b1_branch2c"
  type: "Convolution"
  bottom: "res3b1_branch2b"
  top: "res3b1_branch2c"
  param {
    lr_mult: 1
  }
  convolution_param {
    num_output: 512
    bias_term: false
    pad: 0
    kernel_size: 1
    stride: 1
  }
}
layer {
  name: "bn3b1_branch2c"
  type: "BatchNorm"
  bottom: "res3b1_branch2c"
  top: "res3b1_branch2c"
  param {
    lr_mult: 0
    decay_mult: 0
  }
  param {
    lr_mult: 0
    decay_mult: 0
  }
  param {
    lr_mult: 0
    decay_mult: 0
  }
  batch_norm_param {
    use_global_stats: true
  }
}
layer {
  name: "scale3b1_branch2c"
  type: "Scale"
  bottom: "res3b1_branch2c"
  top: "res3b1_branch2c"
  param {
    lr_mult: 0
    decay_mult: 0
  }
  param {
    lr_mult: 0
    decay_mult: 0
  }
  scale_param {
    bias_term: true
  }
}
layer {
  name: "res3b1"
  type: "Eltwise"
  bottom: "res3a"
  bottom: "res3b1_branch2c"
  top: "res3b1"
}
layer {
  name: "res3b1_relu"
  type: "ReLU"
  bottom: "res3b1"
  top: "res3b1"
}
layer {
  name: "res3b2_branch2a"
  type: "Convolution"
  bottom: "res3b1"
  top: "res3b2_branch2a"
  param {
    lr_mult: 1
  }
  convolution_param {
    num_output: 128
    bias_term: false
    pad: 0
    kernel_size: 1
    stride: 1
  }
}
layer {
  name: "bn3b2_branch2a"
  type: "BatchNorm"
  bottom: "res3b2_branch2a"
  top: "res3b2_branch2a"
  param {
    lr_mult: 0
    decay_mult: 0
  }
  param {
    lr_mult: 0
    decay_mult: 0
  }
  param {
    lr_mult: 0
    decay_mult: 0
  }
  batch_norm_param {
    use_global_stats: true
  }
}
layer {
  name: "scale3b2_branch2a"
  type: "Scale"
  bottom: "res3b2_branch2a"
  top: "res3b2_branch2a"
  param {
    lr_mult: 0
    decay_mult: 0
  }
  param {
    lr_mult: 0
    decay_mult: 0
  }
  scale_param {
    bias_term: true
  }
}
layer {
  name: "res3b2_branch2a_relu"
  type: "ReLU"
  bottom: "res3b2_branch2a"
  top: "res3b2_branch2a"
}
layer {
  name: "res3b2_branch2b"
  type: "Convolution"
  bottom: "res3b2_branch2a"
  top: "res3b2_branch2b"
  param {
    lr_mult: 1
  }
  convolution_param {
    num_output: 128
    bias_term: false
    pad: 1
    kernel_size: 3
    stride: 1
  }
}
layer {
  name: "bn3b2_branch2b"
  type: "BatchNorm"
  bottom: "res3b2_branch2b"
  top: "res3b2_branch2b"
  param {
    lr_mult: 0
    decay_mult: 0
  }
  param {
    lr_mult: 0
    decay_mult: 0
  }
  param {
    lr_mult: 0
    decay_mult: 0
  }
  batch_norm_param {
    use_global_stats: true
  }
}
layer {
  name: "scale3b2_branch2b"
  type: "Scale"
  bottom: "res3b2_branch2b"
  top: "res3b2_branch2b"
  param {
    lr_mult: 0
    decay_mult: 0
  }
  param {
    lr_mult: 0
    decay_mult: 0
  }
  scale_param {
    bias_term: true
  }
}
layer {
  name: "res3b2_branch2b_relu"
  type: "ReLU"
  bottom: "res3b2_branch2b"
  top: "res3b2_branch2b"
}
layer {
  name: "res3b2_branch2c"
  type: "Convolution"
  bottom: "res3b2_branch2b"
  top: "res3b2_branch2c"
  param {
    lr_mult: 1
  }
  convolution_param {
    num_output: 512
    bias_term: false
    pad: 0
    kernel_size: 1
    stride: 1
  }
}
layer {
  name: "bn3b2_branch2c"
  type: "BatchNorm"
  bottom: "res3b2_branch2c"
  top: "res3b2_branch2c"
  param {
    lr_mult: 0
    decay_mult: 0
  }
  param {
    lr_mult: 0
    decay_mult: 0
  }
  param {
    lr_mult: 0
    decay_mult: 0
  }
  batch_norm_param {
    use_global_stats: true
  }
}
layer {
  name: "scale3b2_branch2c"
  type: "Scale"
  bottom: "res3b2_branch2c"
  top: "res3b2_branch2c"
  param {
    lr_mult: 0
    decay_mult: 0
  }
  param {
    lr_mult: 0
    decay_mult: 0
  }
  scale_param {
    bias_term: true
  }
}
layer {
  name: "res3b2"
  type: "Eltwise"
  bottom: "res3b1"
  bottom: "res3b2_branch2c"
  top: "res3b2"
}
layer {
  name: "res3b2_relu"
  type: "ReLU"
  bottom: "res3b2"
  top: "res3b2"
}
layer {
  name: "res3b3_branch2a"
  type: "Convolution"
  bottom: "res3b2"
  top: "res3b3_branch2a"
  param {
    lr_mult: 1
  }
  convolution_param {
    num_output: 128
    bias_term: false
    pad: 0
    kernel_size: 1
    stride: 1
  }
}
layer {
  name: "bn3b3_branch2a"
  type: "BatchNorm"
  bottom: "res3b3_branch2a"
  top: "res3b3_branch2a"
  param {
    lr_mult: 0
    decay_mult: 0
  }
  param {
    lr_mult: 0
    decay_mult: 0
  }
  param {
    lr_mult: 0
    decay_mult: 0
  }
  batch_norm_param {
    use_global_stats: true
  }
}
layer {
  name: "scale3b3_branch2a"
  type: "Scale"
  bottom: "res3b3_branch2a"
  top: "res3b3_branch2a"
  param {
    lr_mult: 0
    decay_mult: 0
  }
  param {
    lr_mult: 0
    decay_mult: 0
  }
  scale_param {
    bias_term: true
  }
}
layer {
  name: "res3b3_branch2a_relu"
  type: "ReLU"
  bottom: "res3b3_branch2a"
  top: "res3b3_branch2a"
}
layer {
  name: "res3b3_branch2b"
  type: "Convolution"
  bottom: "res3b3_branch2a"
  top: "res3b3_branch2b"
  param {
    lr_mult: 1
  }
  convolution_param {
    num_output: 128
    bias_term: false
    pad: 1
    kernel_size: 3
    stride: 1
  }
}
layer {
  name: "bn3b3_branch2b"
  type: "BatchNorm"
  bottom: "res3b3_branch2b"
  top: "res3b3_branch2b"
  param {
    lr_mult: 0
    decay_mult: 0
  }
  param {
    lr_mult: 0
    decay_mult: 0
  }
  param {
    lr_mult: 0
    decay_mult: 0
  }
  batch_norm_param {
    use_global_stats: true
  }
}
layer {
  name: "scale3b3_branch2b"
  type: "Scale"
  bottom: "res3b3_branch2b"
  top: "res3b3_branch2b"
  param {
    lr_mult: 0
    decay_mult: 0
  }
  param {
    lr_mult: 0
    decay_mult: 0
  }
  scale_param {
    bias_term: true
  }
}
layer {
  name: "res3b3_branch2b_relu"
  type: "ReLU"
  bottom: "res3b3_branch2b"
  top: "res3b3_branch2b"
}
layer {
  name: "res3b3_branch2c"
  type: "Convolution"
  bottom: "res3b3_branch2b"
  top: "res3b3_branch2c"
  param {
    lr_mult: 1
  }
  convolution_param {
    num_output: 512
    bias_term: false
    pad: 0
    kernel_size: 1
    stride: 1
  }
}
layer {
  name: "bn3b3_branch2c"
  type: "BatchNorm"
  bottom: "res3b3_branch2c"
  top: "res3b3_branch2c"
  param {
    lr_mult: 0
    decay_mult: 0
  }
  param {
    lr_mult: 0
    decay_mult: 0
  }
  param {
    lr_mult: 0
    decay_mult: 0
  }
  batch_norm_param {
    use_global_stats: true
  }
}
layer {
  name: "scale3b3_branch2c"
  type: "Scale"
  bottom: "res3b3_branch2c"
  top: "res3b3_branch2c"
  param {
    lr_mult: 0
    decay_mult: 0
  }
  param {
    lr_mult: 0
    decay_mult: 0
  }
  scale_param {
    bias_term: true
  }
}
layer {
  name: "res3b3"
  type: "Eltwise"
  bottom: "res3b2"
  bottom: "res3b3_branch2c"
  top: "res3b3"
}
layer {
  name: "res3b3_relu"
  type: "ReLU"
  bottom: "res3b3"
  top: "res3b3"
}
layer {
  name: "res4a_branch1"
  type: "Convolution"
  bottom: "res3b3"
  top: "res4a_branch1"
  param {
    lr_mult: 1
  }
  convolution_param {
    num_output: 1024
    bias_term: false
    pad: 0
    kernel_size: 1
    stride: 2
  }
}
layer {
  name: "bn4a_branch1"
  type: "BatchNorm"
  bottom: "res4a_branch1"
  top: "res4a_branch1"
  param {
    lr_mult: 0
    decay_mult: 0
  }
  param {
    lr_mult: 0
    decay_mult: 0
  }
  param {
    lr_mult: 0
    decay_mult: 0
  }
  batch_norm_param {
    use_global_stats: true
  }
}
layer {
  name: "scale4a_branch1"
  type: "Scale"
  bottom: "res4a_branch1"
  top: "res4a_branch1"
  param {
    lr_mult: 0
    decay_mult: 0
  }
  param {
    lr_mult: 0
    decay_mult: 0
  }
  scale_param {
    bias_term: true
  }
}
layer {
  name: "res4a_branch2a"
  type: "Convolution"
  bottom: "res3b3"
  top: "res4a_branch2a"
  param {
    lr_mult: 1
  }
  convolution_param {
    num_output: 256
    bias_term: false
    pad: 0
    kernel_size: 1
    stride: 2
  }
}
layer {
  name: "bn4a_branch2a"
  type: "BatchNorm"
  bottom: "res4a_branch2a"
  top: "res4a_branch2a"
  param {
    lr_mult: 0
    decay_mult: 0
  }
  param {
    lr_mult: 0
    decay_mult: 0
  }
  param {
    lr_mult: 0
    decay_mult: 0
  }
  batch_norm_param {
    use_global_stats: true
  }
}
layer {
  name: "scale4a_branch2a"
  type: "Scale"
  bottom: "res4a_branch2a"
  top: "res4a_branch2a"
  param {
    lr_mult: 0
    decay_mult: 0
  }
  param {
    lr_mult: 0
    decay_mult: 0
  }
  scale_param {
    bias_term: true
  }
}
layer {
  name: "res4a_branch2a_relu"
  type: "ReLU"
  bottom: "res4a_branch2a"
  top: "res4a_branch2a"
}
layer {
  name: "res4a_branch2b"
  type: "Convolution"
  bottom: "res4a_branch2a"
  top: "res4a_branch2b"
  param {
    lr_mult: 1
  }
  convolution_param {
    num_output: 256
    bias_term: false
    pad: 1
    kernel_size: 3
    stride: 1
  }
}
layer {
  name: "bn4a_branch2b"
  type: "BatchNorm"
  bottom: "res4a_branch2b"
  top: "res4a_branch2b"
  param {
    lr_mult: 0
    decay_mult: 0
  }
  param {
    lr_mult: 0
    decay_mult: 0
  }
  param {
    lr_mult: 0
    decay_mult: 0
  }
  batch_norm_param {
    use_global_stats: true
  }
}
layer {
  name: "scale4a_branch2b"
  type: "Scale"
  bottom: "res4a_branch2b"
  top: "res4a_branch2b"
  param {
    lr_mult: 0
    decay_mult: 0
  }
  param {
    lr_mult: 0
    decay_mult: 0
  }
  scale_param {
    bias_term: true
  }
}
layer {
  name: "res4a_branch2b_relu"
  type: "ReLU"
  bottom: "res4a_branch2b"
  top: "res4a_branch2b"
}
layer {
  name: "res4a_branch2c"
  type: "Convolution"
  bottom: "res4a_branch2b"
  top: "res4a_branch2c"
  param {
    lr_mult: 1
  }
  convolution_param {
    num_output: 1024
    bias_term: false
    pad: 0
    kernel_size: 1
    stride: 1
  }
}
layer {
  name: "bn4a_branch2c"
  type: "BatchNorm"
  bottom: "res4a_branch2c"
  top: "res4a_branch2c"
  param {
    lr_mult: 0
    decay_mult: 0
  }
  param {
    lr_mult: 0
    decay_mult: 0
  }
  param {
    lr_mult: 0
    decay_mult: 0
  }
  batch_norm_param {
    use_global_stats: true
  }
}
layer {
  name: "scale4a_branch2c"
  type: "Scale"
  bottom: "res4a_branch2c"
  top: "res4a_branch2c"
  param {
    lr_mult: 0
    decay_mult: 0
  }
  param {
    lr_mult: 0
    decay_mult: 0
  }
  scale_param {
    bias_term: true
  }
}
layer {
  name: "res4a"
  type: "Eltwise"
  bottom: "res4a_branch1"
  bottom: "res4a_branch2c"
  top: "res4a"
}
layer {
  name: "res4a_relu"
  type: "ReLU"
  bottom: "res4a"
  top: "res4a"
}
layer {
  name: "res4b1_branch2a"
  type: "Convolution"
  bottom: "res4a"
  top: "res4b1_branch2a"
  param {
    lr_mult: 1
  }
  convolution_param {
    num_output: 256
    bias_term: false
    pad: 0
    kernel_size: 1
    stride: 1
  }
}
layer {
  name: "bn4b1_branch2a"
  type: "BatchNorm"
  bottom: "res4b1_branch2a"
  top: "res4b1_branch2a"
  param {
    lr_mult: 0
    decay_mult: 0
  }
  param {
    lr_mult: 0
    decay_mult: 0
  }
  param {
    lr_mult: 0
    decay_mult: 0
  }
  batch_norm_param {
    use_global_stats: true
  }
}
layer {
  name: "scale4b1_branch2a"
  type: "Scale"
  bottom: "res4b1_branch2a"
  top: "res4b1_branch2a"
  param {
    lr_mult: 0
    decay_mult: 0
  }
  param {
    lr_mult: 0
    decay_mult: 0
  }
  scale_param {
    bias_term: true
  }
}
layer {
  name: "res4b1_branch2a_relu"
  type: "ReLU"
  bottom: "res4b1_branch2a"
  top: "res4b1_branch2a"
}
layer {
  name: "res4b1_branch2b"
  type: "Convolution"
  bottom: "res4b1_branch2a"
  top: "res4b1_branch2b"
  param {
    lr_mult: 1
  }
  convolution_param {
    num_output: 256
    bias_term: false
    pad: 1
    kernel_size: 3
    stride: 1
  }
}
layer {
  name: "bn4b1_branch2b"
  type: "BatchNorm"
  bottom: "res4b1_branch2b"
  top: "res4b1_branch2b"
  param {
    lr_mult: 0
    decay_mult: 0
  }
  param {
    lr_mult: 0
    decay_mult: 0
  }
  param {
    lr_mult: 0
    decay_mult: 0
  }
  batch_norm_param {
    use_global_stats: true
  }
}
layer {
  name: "scale4b1_branch2b"
  type: "Scale"
  bottom: "res4b1_branch2b"
  top: "res4b1_branch2b"
  param {
    lr_mult: 0
    decay_mult: 0
  }
  param {
    lr_mult: 0
    decay_mult: 0
  }
  scale_param {
    bias_term: true
  }
}
layer {
  name: "res4b1_branch2b_relu"
  type: "ReLU"
  bottom: "res4b1_branch2b"
  top: "res4b1_branch2b"
}
layer {
  name: "res4b1_branch2c"
  type: "Convolution"
  bottom: "res4b1_branch2b"
  top: "res4b1_branch2c"
  param {
    lr_mult: 1
  }
  convolution_param {
    num_output: 1024
    bias_term: false
    pad: 0
    kernel_size: 1
    stride: 1
  }
}
layer {
  name: "bn4b1_branch2c"
  type: "BatchNorm"
  bottom: "res4b1_branch2c"
  top: "res4b1_branch2c"
  param {
    lr_mult: 0
    decay_mult: 0
  }
  param {
    lr_mult: 0
    decay_mult: 0
  }
  param {
    lr_mult: 0
    decay_mult: 0
  }
  batch_norm_param {
    use_global_stats: true
  }
}
layer {
  name: "scale4b1_branch2c"
  type: "Scale"
  bottom: "res4b1_branch2c"
  top: "res4b1_branch2c"
  param {
    lr_mult: 0
    decay_mult: 0
  }
  param {
    lr_mult: 0
    decay_mult: 0
  }
  scale_param {
    bias_term: true
  }
}
layer {
  name: "res4b1"
  type: "Eltwise"
  bottom: "res4a"
  bottom: "res4b1_branch2c"
  top: "res4b1"
}
layer {
  name: "res4b1_relu"
  type: "ReLU"
  bottom: "res4b1"
  top: "res4b1"
}
layer {
  name: "res4b2_branch2a"
  type: "Convolution"
  bottom: "res4b1"
  top: "res4b2_branch2a"
  param {
    lr_mult: 1
  }
  convolution_param {
    num_output: 256
    bias_term: false
    pad: 0
    kernel_size: 1
    stride: 1
  }
}
layer {
  name: "bn4b2_branch2a"
  type: "BatchNorm"
  bottom: "res4b2_branch2a"
  top: "res4b2_branch2a"
  param {
    lr_mult: 0
    decay_mult: 0
  }
  param {
    lr_mult: 0
    decay_mult: 0
  }
  param {
    lr_mult: 0
    decay_mult: 0
  }
  batch_norm_param {
    use_global_stats: true
  }
}
layer {
  name: "scale4b2_branch2a"
  type: "Scale"
  bottom: "res4b2_branch2a"
  top: "res4b2_branch2a"
  param {
    lr_mult: 0
    decay_mult: 0
  }
  param {
    lr_mult: 0
    decay_mult: 0
  }
  scale_param {
    bias_term: true
  }
}
layer {
  name: "res4b2_branch2a_relu"
  type: "ReLU"
  bottom: "res4b2_branch2a"
  top: "res4b2_branch2a"
}
layer {
  name: "res4b2_branch2b"
  type: "Convolution"
  bottom: "res4b2_branch2a"
  top: "res4b2_branch2b"
  param {
    lr_mult: 1
  }
  convolution_param {
    num_output: 256
    bias_term: false
    pad: 1
    kernel_size: 3
    stride: 1
  }
}
layer {
  name: "bn4b2_branch2b"
  type: "BatchNorm"
  bottom: "res4b2_branch2b"
  top: "res4b2_branch2b"
  param {
    lr_mult: 0
    decay_mult: 0
  }
  param {
    lr_mult: 0
    decay_mult: 0
  }
  param {
    lr_mult: 0
    decay_mult: 0
  }
  batch_norm_param {
    use_global_stats: true
  }
}
layer {
  name: "scale4b2_branch2b"
  type: "Scale"
  bottom: "res4b2_branch2b"
  top: "res4b2_branch2b"
  param {
    lr_mult: 0
    decay_mult: 0
  }
  param {
I0509 19:53:06.800982  4089 layer_factory.hpp:77] Creating layer input-data
I0509 19:53:06.826635  4089 net.cpp:100] Creating Layer input-data
I0509 19:53:06.826705  4089 net.cpp:418] input-data -> data
I0509 19:53:06.826735  4089 net.cpp:418] input-data -> im_info
I0509 19:53:06.826757  4089 net.cpp:418] input-data -> gt_boxes
RoiDataLayer: name_to_top: {'gt_boxes': 2, 'data': 0, 'im_info': 1}
I0509 19:53:06.856138  4089 net.cpp:150] Setting up input-data
I0509 19:53:06.856178  4089 net.cpp:157] Top shape: 1 3 600 1000 (1800000)
I0509 19:53:06.856196  4089 net.cpp:157] Top shape: 1 3 (3)
I0509 19:53:06.856212  4089 net.cpp:157] Top shape: 1 4 (4)
I0509 19:53:06.856226  4089 net.cpp:165] Memory required for data: 7200028
I0509 19:53:06.856245  4089 layer_factory.hpp:77] Creating layer data_input-data_0_split
I0509 19:53:06.856273  4089 net.cpp:100] Creating Layer data_input-data_0_split
I0509 19:53:06.856290  4089 net.cpp:444] data_input-data_0_split <- data
I0509 19:53:06.856309  4089 net.cpp:418] data_input-data_0_split -> data_input-data_0_split_0
I0509 19:53:06.856333  4089 net.cpp:418] data_input-data_0_split -> data_input-data_0_split_1
I0509 19:53:06.856405  4089 net.cpp:150] Setting up data_input-data_0_split
I0509 19:53:06.856426  4089 net.cpp:157] Top shape: 1 3 600 1000 (1800000)
I0509 19:53:06.856442  4089 net.cpp:157] Top shape: 1 3 600 1000 (1800000)
I0509 19:53:06.856456  4089 net.cpp:165] Memory required for data: 21600028
I0509 19:53:06.856469  4089 layer_factory.hpp:77] Creating layer im_info_input-data_1_split
I0509 19:53:06.856489  4089 net.cpp:100] Creating Layer im_info_input-data_1_split
I0509 19:53:06.856504  4089 net.cpp:444] im_info_input-data_1_split <- im_info
I0509 19:53:06.856521  4089 net.cpp:418] im_info_input-data_1_split -> im_info_input-data_1_split_0
I0509 19:53:06.856539  4089 net.cpp:418] im_info_input-data_1_split -> im_info_input-data_1_split_1
I0509 19:53:06.856600  4089 net.cpp:150] Setting up im_info_input-data_1_split
I0509 19:53:06.856621  4089 net.cpp:157] Top shape: 1 3 (3)
I0509 19:53:06.856638  4089 net.cpp:157] Top shape: 1 3 (3)
I0509 19:53:06.856652  4089 net.cpp:165] Memory required for data: 21600052
I0509 19:53:06.856667  4089 layer_factory.hpp:77] Creating layer gt_boxes_input-data_2_split
I0509 19:53:06.856683  4089 net.cpp:100] Creating Layer gt_boxes_input-data_2_split
I0509 19:53:06.856696  4089 net.cpp:444] gt_boxes_input-data_2_split <- gt_boxes
I0509 19:53:06.856712  4089 net.cpp:418] gt_boxes_input-data_2_split -> gt_boxes_input-data_2_split_0
I0509 19:53:06.856731  4089 net.cpp:418] gt_boxes_input-data_2_split -> gt_boxes_input-data_2_split_1
I0509 19:53:06.856801  4089 net.cpp:150] Setting up gt_boxes_input-data_2_split
I0509 19:53:06.856822  4089 net.cpp:157] Top shape: 1 4 (4)
I0509 19:53:06.856838  4089 net.cpp:157] Top shape: 1 4 (4)
I0509 19:53:06.856851  4089 net.cpp:165] Memory required for data: 21600084
I0509 19:53:06.856865  4089 layer_factory.hpp:77] Creating layer conv1
I0509 19:53:06.856887  4089 net.cpp:100] Creating Layer conv1
I0509 19:53:06.856902  4089 net.cpp:444] conv1 <- data_input-data_0_split_0
I0509 19:53:06.856920  4089 net.cpp:418] conv1 -> conv1
I0509 19:53:06.858587  4089 net.cpp:150] Setting up conv1
I0509 19:53:06.858628  4089 net.cpp:157] Top shape: 1 64 300 500 (9600000)
I0509 19:53:06.858646  4089 net.cpp:165] Memory required for data: 60000084
I0509 19:53:06.858669  4089 layer_factory.hpp:77] Creating layer bn_conv1
I0509 19:53:06.858695  4089 net.cpp:100] Creating Layer bn_conv1
I0509 19:53:06.858711  4089 net.cpp:444] bn_conv1 <- conv1
I0509 19:53:06.858732  4089 net.cpp:405] bn_conv1 -> conv1 (in-place)
I0509 19:53:06.860561  4089 net.cpp:150] Setting up bn_conv1
I0509 19:53:06.860602  4089 net.cpp:157] Top shape: 1 64 300 500 (9600000)
I0509 19:53:06.860620  4089 net.cpp:165] Memory required for data: 98400084
I0509 19:53:06.860647  4089 layer_factory.hpp:77] Creating layer scale_conv1
I0509 19:53:06.860672  4089 net.cpp:100] Creating Layer scale_conv1
I0509 19:53:06.860688  4089 net.cpp:444] scale_conv1 <- conv1
I0509 19:53:06.860707  4089 net.cpp:405] scale_conv1 -> conv1 (in-place)
I0509 19:53:06.860795  4089 layer_factory.hpp:77] Creating layer scale_conv1
I0509 19:53:06.861279  4089 net.cpp:150] Setting up scale_conv1
I0509 19:53:06.861310  4089 net.cpp:157] Top shape: 1 64 300 500 (9600000)
I0509 19:53:06.861330  4089 net.cpp:165] Memory required for data: 136800084
I0509 19:53:06.861353  4089 layer_factory.hpp:77] Creating layer conv1_relu
I0509 19:53:06.861376  4089 net.cpp:100] Creating Layer conv1_relu
I0509 19:53:06.861390  4089 net.cpp:444] conv1_relu <- conv1
I0509 19:53:06.861407  4089 net.cpp:405] conv1_relu -> conv1 (in-place)
I0509 19:53:06.861433  4089 net.cpp:150] Setting up conv1_relu
I0509 19:53:06.861454  4089 net.cpp:157] Top shape: 1 64 300 500 (9600000)
I0509 19:53:06.861469  4089 net.cpp:165] Memory required for data: 175200084
I0509 19:53:06.861481  4089 layer_factory.hpp:77] Creating layer pool1
I0509 19:53:06.861500  4089 net.cpp:100] Creating Layer pool1
I0509 19:53:06.861515  4089 net.cpp:444] pool1 <- conv1
I0509 19:53:06.861531  4089 net.cpp:418] pool1 -> pool1
I0509 19:53:06.861604  4089 net.cpp:150] Setting up pool1
I0509 19:53:06.861625  4089 net.cpp:157] Top shape: 1 64 150 250 (2400000)
I0509 19:53:06.861639  4089 net.cpp:165] Memory required for data: 184800084
I0509 19:53:06.861654  4089 layer_factory.hpp:77] Creating layer pool1_pool1_0_split
I0509 19:53:06.861670  4089 net.cpp:100] Creating Layer pool1_pool1_0_split
I0509 19:53:06.861685  4089 net.cpp:444] pool1_pool1_0_split <- pool1
I0509 19:53:06.861702  4089 net.cpp:418] pool1_pool1_0_split -> pool1_pool1_0_split_0
I0509 19:53:06.861722  4089 net.cpp:418] pool1_pool1_0_split -> pool1_pool1_0_split_1
I0509 19:53:06.861796  4089 net.cpp:150] Setting up pool1_pool1_0_split
I0509 19:53:06.861819  4089 net.cpp:157] Top shape: 1 64 150 250 (2400000)
I0509 19:53:06.861835  4089 net.cpp:157] Top shape: 1 64 150 250 (2400000)
I0509 19:53:06.861850  4089 net.cpp:165] Memory required for data: 204000084
I0509 19:53:06.861865  4089 layer_factory.hpp:77] Creating layer res2a_branch1
I0509 19:53:06.861887  4089 net.cpp:100] Creating Layer res2a_branch1
I0509 19:53:06.861902  4089 net.cpp:444] res2a_branch1 <- pool1_pool1_0_split_0
I0509 19:53:06.861920  4089 net.cpp:418] res2a_branch1 -> res2a_branch1
I0509 19:53:06.862257  4089 net.cpp:150] Setting up res2a_branch1
I0509 19:53:06.862282  4089 net.cpp:157] Top shape: 1 256 150 250 (9600000)
I0509 19:53:06.862298  4089 net.cpp:165] Memory required for data: 242400084
I0509 19:53:06.862315  4089 layer_factory.hpp:77] Creating layer bn2a_branch1
I0509 19:53:06.862335  4089 net.cpp:100] Creating Layer bn2a_branch1
I0509 19:53:06.862356  4089 net.cpp:444] bn2a_branch1 <- res2a_branch1
I0509 19:53:06.862375  4089 net.cpp:405] bn2a_branch1 -> res2a_branch1 (in-place)
I0509 19:53:06.864096  4089 net.cpp:150] Setting up bn2a_branch1
I0509 19:53:06.864135  4089 net.cpp:157] Top shape: 1 256 150 250 (9600000)
I0509 19:53:06.864152  4089 net.cpp:165] Memory required for data: 280800084
I0509 19:53:06.864178  4089 layer_factory.hpp:77] Creating layer scale2a_branch1
I0509 19:53:06.864202  4089 net.cpp:100] Creating Layer scale2a_branch1
I0509 19:53:06.864218  4089 net.cpp:444] scale2a_branch1 <- res2a_branch1
I0509 19:53:06.864240  4089 net.cpp:405] scale2a_branch1 -> res2a_branch1 (in-place)
I0509 19:53:06.864322  4089 layer_factory.hpp:77] Creating layer scale2a_branch1
I0509 19:53:06.864599  4089 net.cpp:150] Setting up scale2a_branch1
I0509 19:53:06.864629  4089 net.cpp:157] Top shape: 1 256 150 250 (9600000)
I0509 19:53:06.864645  4089 net.cpp:165] Memory required for data: 319200084
I0509 19:53:06.864662  4089 layer_factory.hpp:77] Creating layer res2a_branch2a
I0509 19:53:06.864686  4089 net.cpp:100] Creating Layer res2a_branch2a
I0509 19:53:06.864703  4089 net.cpp:444] res2a_branch2a <- pool1_pool1_0_split_1
I0509 19:53:06.864724  4089 net.cpp:418] res2a_branch2a -> res2a_branch2a
I0509 19:53:06.866392  4089 net.cpp:150] Setting up res2a_branch2a
I0509 19:53:06.866435  4089 net.cpp:157] Top shape: 1 64 150 250 (2400000)
I0509 19:53:06.866451  4089 net.cpp:165] Memory required for data: 328800084
I0509 19:53:06.866469  4089 layer_factory.hpp:77] Creating layer bn2a_branch2a
I0509 19:53:06.866490  4089 net.cpp:100] Creating Layer bn2a_branch2a
I0509 19:53:06.866506  4089 net.cpp:444] bn2a_branch2a <- res2a_branch2a
I0509 19:53:06.866524  4089 net.cpp:405] bn2a_branch2a -> res2a_branch2a (in-place)
I0509 19:53:06.866883  4089 net.cpp:150] Setting up bn2a_branch2a
I0509 19:53:06.866909  4089 net.cpp:157] Top shape: 1 64 150 250 (2400000)
I0509 19:53:06.866924  4089 net.cpp:165] Memory required for data: 338400084
I0509 19:53:06.866943  4089 layer_factory.hpp:77] Creating layer scale2a_branch2a
I0509 19:53:06.866964  4089 net.cpp:100] Creating Layer scale2a_branch2a
I0509 19:53:06.866979  4089 net.cpp:444] scale2a_branch2a <- res2a_branch2a
I0509 19:53:06.866998  4089 net.cpp:405] scale2a_branch2a -> res2a_branch2a (in-place)
I0509 19:53:06.867079  4089 layer_factory.hpp:77] Creating layer scale2a_branch2a
I0509 19:53:06.867348  4089 net.cpp:150] Setting up scale2a_branch2a
I0509 19:53:06.867375  4089 net.cpp:157] Top shape: 1 64 150 250 (2400000)
I0509 19:53:06.867389  4089 net.cpp:165] Memory required for data: 348000084
I0509 19:53:06.867409  4089 layer_factory.hpp:77] Creating layer res2a_branch2a_relu
I0509 19:53:06.867429  4089 net.cpp:100] Creating Layer res2a_branch2a_relu
I0509 19:53:06.867444  4089 net.cpp:444] res2a_branch2a_relu <- res2a_branch2a
I0509 19:53:06.867465  4089 net.cpp:405] res2a_branch2a_relu -> res2a_branch2a (in-place)
I0509 19:53:06.867491  4089 net.cpp:150] Setting up res2a_branch2a_relu
I0509 19:53:06.867511  4089 net.cpp:157] Top shape: 1 64 150 250 (2400000)
I0509 19:53:06.867525  4089 net.cpp:165] Memory required for data: 357600084
I0509 19:53:06.867540  4089 layer_factory.hpp:77] Creating layer res2a_branch2b
I0509 19:53:06.867563  4089 net.cpp:100] Creating Layer res2a_branch2b
I0509 19:53:06.867581  4089 net.cpp:444] res2a_branch2b <- res2a_branch2a
I0509 19:53:06.867600  4089 net.cpp:418] res2a_branch2b -> res2a_branch2b
I0509 19:53:06.867947  4089 net.cpp:150] Setting up res2a_branch2b
I0509 19:53:06.867974  4089 net.cpp:157] Top shape: 1 64 150 250 (2400000)
I0509 19:53:06.867988  4089 net.cpp:165] Memory required for data: 367200084
I0509 19:53:06.868005  4089 layer_factory.hpp:77] Creating layer bn2a_branch2b
I0509 19:53:06.868026  4089 net.cpp:100] Creating Layer bn2a_branch2b
I0509 19:53:06.868041  4089 net.cpp:444] bn2a_branch2b <- res2a_branch2b
I0509 19:53:06.868060  4089 net.cpp:405] bn2a_branch2b -> res2a_branch2b (in-place)
I0509 19:53:06.868403  4089 net.cpp:150] Setting up bn2a_branch2b
I0509 19:53:06.868432  4089 net.cpp:157] Top shape: 1 64 150 250 (2400000)
I0509 19:53:06.868448  4089 net.cpp:165] Memory required for data: 376800084
I0509 19:53:06.868466  4089 layer_factory.hpp:77] Creating layer scale2a_branch2b
I0509 19:53:06.868484  4089 net.cpp:100] Creating Layer scale2a_branch2b
I0509 19:53:06.868499  4089 net.cpp:444] scale2a_branch2b <- res2a_branch2b
I0509 19:53:06.868520  4089 net.cpp:405] scale2a_branch2b -> res2a_branch2b (in-place)
I0509 19:53:06.868597  4089 layer_factory.hpp:77] Creating layer scale2a_branch2b
I0509 19:53:06.868865  4089 net.cpp:150] Setting up scale2a_branch2b
I0509 19:53:06.868891  4089 net.cpp:157] Top shape: 1 64 150 250 (2400000)
I0509 19:53:06.868906  4089 net.cpp:165] Memory required for data: 386400084
I0509 19:53:06.868922  4089 layer_factory.hpp:77] Creating layer res2a_branch2b_relu
I0509 19:53:06.868942  4089 net.cpp:100] Creating Layer res2a_branch2b_relu
I0509 19:53:06.868957  4089 net.cpp:444] res2a_branch2b_relu <- res2a_branch2b
I0509 19:53:06.868973  4089 net.cpp:405] res2a_branch2b_relu -> res2a_branch2b (in-place)
I0509 19:53:06.868993  4089 net.cpp:150] Setting up res2a_branch2b_relu
I0509 19:53:06.869009  4089 net.cpp:157] Top shape: 1 64 150 250 (2400000)
I0509 19:53:06.869022  4089 net.cpp:165] Memory required for data: 396000084
I0509 19:53:06.869035  4089 layer_factory.hpp:77] Creating layer res2a_branch2c
I0509 19:53:06.869053  4089 net.cpp:100] Creating Layer res2a_branch2c
I0509 19:53:06.869068  4089 net.cpp:444] res2a_branch2c <- res2a_branch2b
I0509 19:53:06.869084  4089 net.cpp:418] res2a_branch2c -> res2a_branch2c
I0509 19:53:06.869406  4089 net.cpp:150] Setting up res2a_branch2c
I0509 19:53:06.869433  4089 net.cpp:157] Top shape: 1 256 150 250 (9600000)
I0509 19:53:06.869447  4089 net.cpp:165] Memory required for data: 434400084
I0509 19:53:06.869463  4089 layer_factory.hpp:77] Creating layer bn2a_branch2c
I0509 19:53:06.869483  4089 net.cpp:100] Creating Layer bn2a_branch2c
I0509 19:53:06.869498  4089 net.cpp:444] bn2a_branch2c <- res2a_branch2c
I0509 19:53:06.869516  4089 net.cpp:405] bn2a_branch2c -> res2a_branch2c (in-place)
I0509 19:53:06.869848  4089 net.cpp:150] Setting up bn2a_branch2c
I0509 19:53:06.869870  4089 net.cpp:157] Top shape: 1 256 150 250 (9600000)
I0509 19:53:06.869884  4089 net.cpp:165] Memory required for data: 472800084
I0509 19:53:06.869902  4089 layer_factory.hpp:77] Creating layer scale2a_branch2c
I0509 19:53:06.869922  4089 net.cpp:100] Creating Layer scale2a_branch2c
I0509 19:53:06.869937  4089 net.cpp:444] scale2a_branch2c <- res2a_branch2c
I0509 19:53:06.869953  4089 net.cpp:405] scale2a_branch2c -> res2a_branch2c (in-place)
I0509 19:53:06.870026  4089 layer_factory.hpp:77] Creating layer scale2a_branch2c
I0509 19:53:06.870276  4089 net.cpp:150] Setting up scale2a_branch2c
I0509 19:53:06.870301  4089 net.cpp:157] Top shape: 1 256 150 250 (9600000)
I0509 19:53:06.870316  4089 net.cpp:165] Memory required for data: 511200084
I0509 19:53:06.870333  4089 layer_factory.hpp:77] Creating layer res2a
I0509 19:53:06.870357  4089 net.cpp:100] Creating Layer res2a
I0509 19:53:06.870371  4089 net.cpp:444] res2a <- res2a_branch1
I0509 19:53:06.870386  4089 net.cpp:444] res2a <- res2a_branch2c
I0509 19:53:06.870404  4089 net.cpp:418] res2a -> res2a
I0509 19:53:06.870455  4089 net.cpp:150] Setting up res2a
I0509 19:53:06.870476  4089 net.cpp:157] Top shape: 1 256 150 250 (9600000)
I0509 19:53:06.870488  4089 net.cpp:165] Memory required for data: 549600084
I0509 19:53:06.870502  4089 layer_factory.hpp:77] Creating layer res2a_relu
I0509 19:53:06.870517  4089 net.cpp:100] Creating Layer res2a_relu
I0509 19:53:06.870532  4089 net.cpp:444] res2a_relu <- res2a
I0509 19:53:06.870548  4089 net.cpp:405] res2a_relu -> res2a (in-place)
I0509 19:53:06.870564  4089 net.cpp:150] Setting up res2a_relu
I0509 19:53:06.870579  4089 net.cpp:157] Top shape: 1 256 150 250 (9600000)
I0509 19:53:06.870592  4089 net.cpp:165] Memory required for data: 588000084
I0509 19:53:06.870609  4089 layer_factory.hpp:77] Creating layer res2a_res2a_relu_0_split
I0509 19:53:06.870632  4089 net.cpp:100] Creating Layer res2a_res2a_relu_0_split
I0509 19:53:06.870648  4089 net.cpp:444] res2a_res2a_relu_0_split <- res2a
I0509 19:53:06.870666  4089 net.cpp:418] res2a_res2a_relu_0_split -> res2a_res2a_relu_0_split_0
I0509 19:53:06.870687  4089 net.cpp:418] res2a_res2a_relu_0_split -> res2a_res2a_relu_0_split_1
I0509 19:53:06.870756  4089 net.cpp:150] Setting up res2a_res2a_relu_0_split
I0509 19:53:06.870776  4089 net.cpp:157] Top shape: 1 256 150 250 (9600000)
I0509 19:53:06.870791  4089 net.cpp:157] Top shape: 1 256 150 250 (9600000)
I0509 19:53:06.870805  4089 net.cpp:165] Memory required for data: 664800084
I0509 19:53:06.870818  4089 layer_factory.hpp:77] Creating layer res2b_branch2a
I0509 19:53:06.870838  4089 net.cpp:100] Creating Layer res2b_branch2a
I0509 19:53:06.870853  4089 net.cpp:444] res2b_branch2a <- res2a_res2a_relu_0_split_0
I0509 19:53:06.870869  4089 net.cpp:418] res2b_branch2a -> res2b_branch2a
I0509 19:53:06.871171  4089 net.cpp:150] Setting up res2b_branch2a
I0509 19:53:06.871196  4089 net.cpp:157] Top shape: 1 64 150 250 (2400000)
I0509 19:53:06.871210  4089 net.cpp:165] Memory required for data: 674400084
I0509 19:53:06.871227  4089 layer_factory.hpp:77] Creating layer bn2b_branch2a
I0509 19:53:06.871249  4089 net.cpp:100] Creating Layer bn2b_branch2a
I0509 19:53:06.871264  4089 net.cpp:444] bn2b_branch2a <- res2b_branch2a
I0509 19:53:06.871280  4089 net.cpp:405] bn2b_branch2a -> res2b_branch2a (in-place)
I0509 19:53:06.872994  4089 net.cpp:150] Setting up bn2b_branch2a
I0509 19:53:06.873034  4089 net.cpp:157] Top shape: 1 64 150 250 (2400000)
I0509 19:53:06.873050  4089 net.cpp:165] Memory required for data: 684000084
I0509 19:53:06.873078  4089 layer_factory.hpp:77] Creating layer scale2b_branch2a
I0509 19:53:06.873100  4089 net.cpp:100] Creating Layer scale2b_branch2a
I0509 19:53:06.873116  4089 net.cpp:444] scale2b_branch2a <- res2b_branch2a
I0509 19:53:06.873136  4089 net.cpp:405] scale2b_branch2a -> res2b_branch2a (in-place)
I0509 19:53:06.873222  4089 layer_factory.hpp:77] Creating layer scale2b_branch2a
I0509 19:53:06.873491  4089 net.cpp:150] Setting up scale2b_branch2a
I0509 19:53:06.873518  4089 net.cpp:157] Top shape: 1 64 150 250 (2400000)
I0509 19:53:06.873533  4089 net.cpp:165] Memory required for data: 693600084
I0509 19:53:06.873550  4089 layer_factory.hpp:77] Creating layer res2b_branch2a_relu
I0509 19:53:06.873567  4089 net.cpp:100] Creating Layer res2b_branch2a_relu
I0509 19:53:06.873582  4089 net.cpp:444] res2b_branch2a_relu <- res2b_branch2a
I0509 19:53:06.873600  4089 net.cpp:405] res2b_branch2a_relu -> res2b_branch2a (in-place)
I0509 19:53:06.873618  4089 net.cpp:150] Setting up res2b_branch2a_relu
I0509 19:53:06.873634  4089 net.cpp:157] Top shape: 1 64 150 250 (2400000)
I0509 19:53:06.873647  4089 net.cpp:165] Memory required for data: 703200084
I0509 19:53:06.873661  4089 layer_factory.hpp:77] Creating layer res2b_branch2b
I0509 19:53:06.873679  4089 net.cpp:100] Creating Layer res2b_branch2b
I0509 19:53:06.873693  4089 net.cpp:444] res2b_branch2b <- res2b_branch2a
I0509 19:53:06.873709  4089 net.cpp:418] res2b_branch2b -> res2b_branch2b
I0509 19:53:06.874049  4089 net.cpp:150] Setting up res2b_branch2b
I0509 19:53:06.874075  4089 net.cpp:157] Top shape: 1 64 150 250 (2400000)
I0509 19:53:06.874090  4089 net.cpp:165] Memory required for data: 712800084
I0509 19:53:06.874106  4089 layer_factory.hpp:77] Creating layer bn2b_branch2b
I0509 19:53:06.874132  4089 net.cpp:100] Creating Layer bn2b_branch2b
I0509 19:53:06.874147  4089 net.cpp:444] bn2b_branch2b <- res2b_branch2b
I0509 19:53:06.874164  4089 net.cpp:405] bn2b_branch2b -> res2b_branch2b (in-place)
I0509 19:53:06.874510  4089 net.cpp:150] Setting up bn2b_branch2b
I0509 19:53:06.874534  4089 net.cpp:157] Top shape: 1 64 150 250 (2400000)
I0509 19:53:06.874549  4089 net.cpp:165] Memory required for data: 722400084
I0509 19:53:06.874568  4089 layer_factory.hpp:77] Creating layer scale2b_branch2b
I0509 19:53:06.874589  4089 net.cpp:100] Creating Layer scale2b_branch2b
I0509 19:53:06.874609  4089 net.cpp:444] scale2b_branch2b <- res2b_branch2b
I0509 19:53:06.874630  4089 net.cpp:405] scale2b_branch2b -> res2b_branch2b (in-place)
I0509 19:53:06.874708  4089 layer_factory.hpp:77] Creating layer scale2b_branch2b
I0509 19:53:06.874976  4089 net.cpp:150] Setting up scale2b_branch2b
I0509 19:53:06.875002  4089 net.cpp:157] Top shape: 1 64 150 250 (2400000)
I0509 19:53:06.875018  4089 net.cpp:165] Memory required for data: 732000084
I0509 19:53:06.875036  4089 layer_factory.hpp:77] Creating layer res2b_branch2b_relu
I0509 19:53:06.875052  4089 net.cpp:100] Creating Layer res2b_branch2b_relu
I0509 19:53:06.875066  4089 net.cpp:444] res2b_branch2b_relu <- res2b_branch2b
I0509 19:53:06.875082  4089 net.cpp:405] res2b_branch2b_relu -> res2b_branch2b (in-place)
I0509 19:53:06.875099  4089 net.cpp:150] Setting up res2b_branch2b_relu
I0509 19:53:06.875115  4089 net.cpp:157] Top shape: 1 64 150 250 (2400000)
I0509 19:53:06.875128  4089 net.cpp:165] Memory required for data: 741600084
I0509 19:53:06.875143  4089 layer_factory.hpp:77] Creating layer res2b_branch2c
I0509 19:53:06.875159  4089 net.cpp:100] Creating Layer res2b_branch2c
I0509 19:53:06.875174  4089 net.cpp:444] res2b_branch2c <- res2b_branch2b
I0509 19:53:06.875192  4089 net.cpp:418] res2b_branch2c -> res2b_branch2c
I0509 19:53:06.875527  4089 net.cpp:150] Setting up res2b_branch2c
I0509 19:53:06.875555  4089 net.cpp:157] Top shape: 1 256 150 250 (9600000)
I0509 19:53:06.875569  4089 net.cpp:165] Memory required for data: 780000084
I0509 19:53:06.875586  4089 layer_factory.hpp:77] Creating layer bn2b_branch2c
I0509 19:53:06.875609  4089 net.cpp:100] Creating Layer bn2b_branch2c
I0509 19:53:06.875624  4089 net.cpp:444] bn2b_branch2c <- res2b_branch2c
I0509 19:53:06.875641  4089 net.cpp:405] bn2b_branch2c -> res2b_branch2c (in-place)
I0509 19:53:06.875988  4089 net.cpp:150] Setting up bn2b_branch2c
I0509 19:53:06.876013  4089 net.cpp:157] Top shape: 1 256 150 250 (9600000)
I0509 19:53:06.876027  4089 net.cpp:165] Memory required for data: 818400084
I0509 19:53:06.876047  4089 layer_factory.hpp:77] Creating layer scale2b_branch2c
I0509 19:53:06.876066  4089 net.cpp:100] Creating Layer scale2b_branch2c
I0509 19:53:06.876085  4089 net.cpp:444] scale2b_branch2c <- res2b_branch2c
I0509 19:53:06.876106  4089 net.cpp:405] scale2b_branch2c -> res2b_branch2c (in-place)
I0509 19:53:06.876180  4089 layer_factory.hpp:77] Creating layer scale2b_branch2c
I0509 19:53:06.876433  4089 net.cpp:150] Setting up scale2b_branch2c
I0509 19:53:06.876459  4089 net.cpp:157] Top shape: 1 256 150 250 (9600000)
I0509 19:53:06.876473  4089 net.cpp:165] Memory required for data: 856800084
I0509 19:53:06.876492  4089 layer_factory.hpp:77] Creating layer res2b
I0509 19:53:06.876508  4089 net.cpp:100] Creating Layer res2b
I0509 19:53:06.876523  4089 net.cpp:444] res2b <- res2a_res2a_relu_0_split_1
I0509 19:53:06.876538  4089 net.cpp:444] res2b <- res2b_branch2c
I0509 19:53:06.876554  4089 net.cpp:418] res2b -> res2b
I0509 19:53:06.876603  4089 net.cpp:150] Setting up res2b
I0509 19:53:06.876624  4089 net.cpp:157] Top shape: 1 256 150 250 (9600000)
I0509 19:53:06.876638  4089 net.cpp:165] Memory required for data: 895200084
I0509 19:53:06.876652  4089 layer_factory.hpp:77] Creating layer res2b_relu
I0509 19:53:06.876667  4089 net.cpp:100] Creating Layer res2b_relu
I0509 19:53:06.876682  4089 net.cpp:444] res2b_relu <- res2b
I0509 19:53:06.876698  4089 net.cpp:405] res2b_relu -> res2b (in-place)
I0509 19:53:06.876715  4089 net.cpp:150] Setting up res2b_relu
I0509 19:53:06.876732  4089 net.cpp:157] Top shape: 1 256 150 250 (9600000)
I0509 19:53:06.876745  4089 net.cpp:165] Memory required for data: 933600084
I0509 19:53:06.876758  4089 layer_factory.hpp:77] Creating layer res2b_res2b_relu_0_split
I0509 19:53:06.876776  4089 net.cpp:100] Creating Layer res2b_res2b_relu_0_split
I0509 19:53:06.876791  4089 net.cpp:444] res2b_res2b_relu_0_split <- res2b
I0509 19:53:06.876806  4089 net.cpp:418] res2b_res2b_relu_0_split -> res2b_res2b_relu_0_split_0
I0509 19:53:06.876828  4089 net.cpp:418] res2b_res2b_relu_0_split -> res2b_res2b_relu_0_split_1
I0509 19:53:06.876900  4089 net.cpp:150] Setting up res2b_res2b_relu_0_split
I0509 19:53:06.876921  4089 net.cpp:157] Top shape: 1 256 150 250 (9600000)
I0509 19:53:06.876936  4089 net.cpp:157] Top shape: 1 256 150 250 (9600000)
I0509 19:53:06.876950  4089 net.cpp:165] Memory required for data: 1010400084
I0509 19:53:06.876965  4089 layer_factory.hpp:77] Creating layer res2c_branch2a
I0509 19:53:06.876983  4089 net.cpp:100] Creating Layer res2c_branch2a
I0509 19:53:06.876999  4089 net.cpp:444] res2c_branch2a <- res2b_res2b_relu_0_split_0
I0509 19:53:06.877018  4089 net.cpp:418] res2c_branch2a -> res2c_branch2a
I0509 19:53:06.877331  4089 net.cpp:150] Setting up res2c_branch2a
I0509 19:53:06.877357  4089 net.cpp:157] Top shape: 1 64 150 250 (2400000)
I0509 19:53:06.877372  4089 net.cpp:165] Memory required for data: 1020000084
I0509 19:53:06.877388  4089 layer_factory.hpp:77] Creating layer bn2c_branch2a
I0509 19:53:06.877405  4089 net.cpp:100] Creating Layer bn2c_branch2a
I0509 19:53:06.877420  4089 net.cpp:444] bn2c_branch2a <- res2c_branch2a
I0509 19:53:06.877447  4089 net.cpp:405] bn2c_branch2a -> res2c_branch2a (in-place)
I0509 19:53:06.877806  4089 net.cpp:150] Setting up bn2c_branch2a
I0509 19:53:06.877831  4089 net.cpp:157] Top shape: 1 64 150 250 (2400000)
I0509 19:53:06.877847  4089 net.cpp:165] Memory required for data: 1029600084
I0509 19:53:06.877867  4089 layer_factory.hpp:77] Creating layer scale2c_branch2a
I0509 19:53:06.877888  4089 net.cpp:100] Creating Layer scale2c_branch2a
I0509 19:53:06.877904  4089 net.cpp:444] scale2c_branch2a <- res2c_branch2a
I0509 19:53:06.877920  4089 net.cpp:405] scale2c_branch2a -> res2c_branch2a (in-place)
I0509 19:53:06.877996  4089 layer_factory.hpp:77] Creating layer scale2c_branch2a
I0509 19:53:06.878275  4089 net.cpp:150] Setting up scale2c_branch2a
I0509 19:53:06.878301  4089 net.cpp:157] Top shape: 1 64 150 250 (2400000)
I0509 19:53:06.878315  4089 net.cpp:165] Memory required for data: 1039200084
I0509 19:53:06.878335  4089 layer_factory.hpp:77] Creating layer res2c_branch2a_relu
I0509 19:53:06.878353  4089 net.cpp:100] Creating Layer res2c_branch2a_relu
I0509 19:53:06.878368  4089 net.cpp:444] res2c_branch2a_relu <- res2c_branch2a
I0509 19:53:06.878386  4089 net.cpp:405] res2c_branch2a_relu -> res2c_branch2a (in-place)
I0509 19:53:06.878406  4089 net.cpp:150] Setting up res2c_branch2a_relu
I0509 19:53:06.878422  4089 net.cpp:157] Top shape: 1 64 150 250 (2400000)
I0509 19:53:06.878435  4089 net.cpp:165] Memory required for data: 1048800084
I0509 19:53:06.878449  4089 layer_factory.hpp:77] Creating layer res2c_branch2b
I0509 19:53:06.878468  4089 net.cpp:100] Creating Layer res2c_branch2b
I0509 19:53:06.878484  4089 net.cpp:444] res2c_branch2b <- res2c_branch2a
I0509 19:53:06.878504  4089 net.cpp:418] res2c_branch2b -> res2c_branch2b
I0509 19:53:06.878865  4089 net.cpp:150] Setting up res2c_branch2b
I0509 19:53:06.878890  4089 net.cpp:157] Top shape: 1 64 150 250 (2400000)
I0509 19:53:06.878906  4089 net.cpp:165] Memory required for data: 1058400084
I0509 19:53:06.878922  4089 layer_factory.hpp:77] Creating layer bn2c_branch2b
I0509 19:53:06.878943  4089 net.cpp:100] Creating Layer bn2c_branch2b
I0509 19:53:06.878960  4089 net.cpp:444] bn2c_branch2b <- res2c_branch2b
I0509 19:53:06.878980  4089 net.cpp:405] bn2c_branch2b -> res2c_branch2b (in-place)
I0509 19:53:06.880731  4089 net.cpp:150] Setting up bn2c_branch2b
I0509 19:53:06.880772  4089 net.cpp:157] Top shape: 1 64 150 250 (2400000)
I0509 19:53:06.880790  4089 net.cpp:165] Memory required for data: 1068000084
I0509 19:53:06.880812  4089 layer_factory.hpp:77] Creating layer scale2c_branch2b
I0509 19:53:06.880833  4089 net.cpp:100] Creating Layer scale2c_branch2b
I0509 19:53:06.880852  4089 net.cpp:444] scale2c_branch2b <- res2c_branch2b
I0509 19:53:06.880872  4089 net.cpp:405] scale2c_branch2b -> res2c_branch2b (in-place)
I0509 19:53:06.880964  4089 layer_factory.hpp:77] Creating layer scale2c_branch2b
I0509 19:53:06.881247  4089 net.cpp:150] Setting up scale2c_branch2b
I0509 19:53:06.881275  4089 net.cpp:157] Top shape: 1 64 150 250 (2400000)
I0509 19:53:06.881291  4089 net.cpp:165] Memory required for data: 1077600084
I0509 19:53:06.881309  4089 layer_factory.hpp:77] Creating layer res2c_branch2b_relu
I0509 19:53:06.881330  4089 net.cpp:100] Creating Layer res2c_branch2b_relu
I0509 19:53:06.881345  4089 net.cpp:444] res2c_branch2b_relu <- res2c_branch2b
I0509 19:53:06.881361  4089 net.cpp:405] res2c_branch2b_relu -> res2c_branch2b (in-place)
I0509 19:53:06.881381  4089 net.cpp:150] Setting up res2c_branch2b_relu
I0509 19:53:06.881397  4089 net.cpp:157] Top shape: 1 64 150 250 (2400000)
I0509 19:53:06.881410  4089 net.cpp:165] Memory required for data: 1087200084
I0509 19:53:06.881424  4089 layer_factory.hpp:77] Creating layer res2c_branch2c
I0509 19:53:06.881443  4089 net.cpp:100] Creating Layer res2c_branch2c
I0509 19:53:06.881458  4089 net.cpp:444] res2c_branch2c <- res2c_branch2b
I0509 19:53:06.881476  4089 net.cpp:418] res2c_branch2c -> res2c_branch2c
I0509 19:53:06.881822  4089 net.cpp:150] Setting up res2c_branch2c
I0509 19:53:06.881849  4089 net.cpp:157] Top shape: 1 256 150 250 (9600000)
I0509 19:53:06.881863  4089 net.cpp:165] Memory required for data: 1125600084
I0509 19:53:06.881880  4089 layer_factory.hpp:77] Creating layer bn2c_branch2c
I0509 19:53:06.881899  4089 net.cpp:100] Creating Layer bn2c_branch2c
I0509 19:53:06.881916  4089 net.cpp:444] bn2c_branch2c <- res2c_branch2c
I0509 19:53:06.881932  4089 net.cpp:405] bn2c_branch2c -> res2c_branch2c (in-place)
I0509 19:53:06.882300  4089 net.cpp:150] Setting up bn2c_branch2c
I0509 19:53:06.882328  4089 net.cpp:157] Top shape: 1 256 150 250 (9600000)
I0509 19:53:06.882341  4089 net.cpp:165] Memory required for data: 1164000084
I0509 19:53:06.882364  4089 layer_factory.hpp:77] Creating layer scale2c_branch2c
I0509 19:53:06.882385  4089 net.cpp:100] Creating Layer scale2c_branch2c
I0509 19:53:06.882400  4089 net.cpp:444] scale2c_branch2c <- res2c_branch2c
I0509 19:53:06.882417  4089 net.cpp:405] scale2c_branch2c -> res2c_branch2c (in-place)
I0509 19:53:06.882493  4089 layer_factory.hpp:77] Creating layer scale2c_branch2c
I0509 19:53:06.882767  4089 net.cpp:150] Setting up scale2c_branch2c
I0509 19:53:06.882794  4089 net.cpp:157] Top shape: 1 256 150 250 (9600000)
I0509 19:53:06.882808  4089 net.cpp:165] Memory required for data: 1202400084
I0509 19:53:06.882834  4089 layer_factory.hpp:77] Creating layer res2c
I0509 19:53:06.882853  4089 net.cpp:100] Creating Layer res2c
I0509 19:53:06.882868  4089 net.cpp:444] res2c <- res2b_res2b_relu_0_split_1
I0509 19:53:06.882882  4089 net.cpp:444] res2c <- res2c_branch2c
I0509 19:53:06.882899  4089 net.cpp:418] res2c -> res2c
I0509 19:53:06.882953  4089 net.cpp:150] Setting up res2c
I0509 19:53:06.882975  4089 net.cpp:157] Top shape: 1 256 150 250 (9600000)
I0509 19:53:06.882990  4089 net.cpp:165] Memory required for data: 1240800084
I0509 19:53:06.883004  4089 layer_factory.hpp:77] Creating layer res2c_relu
I0509 19:53:06.883025  4089 net.cpp:100] Creating Layer res2c_relu
I0509 19:53:06.883043  4089 net.cpp:444] res2c_relu <- res2c
I0509 19:53:06.883057  4089 net.cpp:405] res2c_relu -> res2c (in-place)
I0509 19:53:06.883078  4089 net.cpp:150] Setting up res2c_relu
I0509 19:53:06.883096  4089 net.cpp:157] Top shape: 1 256 150 250 (9600000)
I0509 19:53:06.883111  4089 net.cpp:165] Memory required for data: 1279200084
I0509 19:53:06.883123  4089 layer_factory.hpp:77] Creating layer res2c_res2c_relu_0_split
I0509 19:53:06.883139  4089 net.cpp:100] Creating Layer res2c_res2c_relu_0_split
I0509 19:53:06.883153  4089 net.cpp:444] res2c_res2c_relu_0_split <- res2c
I0509 19:53:06.883172  4089 net.cpp:418] res2c_res2c_relu_0_split -> res2c_res2c_relu_0_split_0
I0509 19:53:06.883193  4089 net.cpp:418] res2c_res2c_relu_0_split -> res2c_res2c_relu_0_split_1
I0509 19:53:06.883265  4089 net.cpp:150] Setting up res2c_res2c_relu_0_split
I0509 19:53:06.883286  4089 net.cpp:157] Top shape: 1 256 150 250 (9600000)
I0509 19:53:06.883301  4089 net.cpp:157] Top shape: 1 256 150 250 (9600000)
I0509 19:53:06.883321  4089 net.cpp:165] Memory required for data: 1356000084
I0509 19:53:06.883335  4089 layer_factory.hpp:77] Creating layer res3a_branch1
I0509 19:53:06.883353  4089 net.cpp:100] Creating Layer res3a_branch1
I0509 19:53:06.883368  4089 net.cpp:444] res3a_branch1 <- res2c_res2c_relu_0_split_0
I0509 19:53:06.883389  4089 net.cpp:418] res3a_branch1 -> res3a_branch1
I0509 19:53:06.885169  4089 net.cpp:150] Setting up res3a_branch1
I0509 19:53:06.885207  4089 net.cpp:157] Top shape: 1 512 75 125 (4800000)
I0509 19:53:06.885224  4089 net.cpp:165] Memory required for data: 1375200084
I0509 19:53:06.885242  4089 layer_factory.hpp:77] Creating layer bn3a_branch1
I0509 19:53:06.885263  4089 net.cpp:100] Creating Layer bn3a_branch1
I0509 19:53:06.885279  4089 net.cpp:444] bn3a_branch1 <- res3a_branch1
I0509 19:53:06.885298  4089 net.cpp:405] bn3a_branch1 -> res3a_branch1 (in-place)
I0509 19:53:06.886973  4089 net.cpp:150] Setting up bn3a_branch1
I0509 19:53:06.887009  4089 net.cpp:157] Top shape: 1 512 75 125 (4800000)
I0509 19:53:06.887027  4089 net.cpp:165] Memory required for data: 1394400084
I0509 19:53:06.887046  4089 layer_factory.hpp:77] Creating layer scale3a_branch1
I0509 19:53:06.887070  4089 net.cpp:100] Creating Layer scale3a_branch1
I0509 19:53:06.887087  4089 net.cpp:444] scale3a_branch1 <- res3a_branch1
I0509 19:53:06.887109  4089 net.cpp:405] scale3a_branch1 -> res3a_branch1 (in-place)
I0509 19:53:06.887187  4089 layer_factory.hpp:77] Creating layer scale3a_branch1
I0509 19:53:06.887415  4089 net.cpp:150] Setting up scale3a_branch1
I0509 19:53:06.887444  4089 net.cpp:157] Top shape: 1 512 75 125 (4800000)
I0509 19:53:06.887459  4089 net.cpp:165] Memory required for data: 1413600084
I0509 19:53:06.887483  4089 layer_factory.hpp:77] Creating layer res3a_branch2a
I0509 19:53:06.887512  4089 net.cpp:100] Creating Layer res3a_branch2a
I0509 19:53:06.887531  4089 net.cpp:444] res3a_branch2a <- res2c_res2c_relu_0_split_1
I0509 19:53:06.887548  4089 net.cpp:418] res3a_branch2a -> res3a_branch2a
I0509 19:53:06.887905  4089 net.cpp:150] Setting up res3a_branch2a
I0509 19:53:06.887933  4089 net.cpp:157] Top shape: 1 128 75 125 (1200000)
I0509 19:53:06.887948  4089 net.cpp:165] Memory required for data: 1418400084
I0509 19:53:06.887962  4089 layer_factory.hpp:77] Creating layer bn3a_branch2a
I0509 19:53:06.887984  4089 net.cpp:100] Creating Layer bn3a_branch2a
I0509 19:53:06.888000  4089 net.cpp:444] bn3a_branch2a <- res3a_branch2a
I0509 19:53:06.888015  4089 net.cpp:405] bn3a_branch2a -> res3a_branch2a (in-place)
I0509 19:53:06.888355  4089 net.cpp:150] Setting up bn3a_branch2a
I0509 19:53:06.888381  4089 net.cpp:157] Top shape: 1 128 75 125 (1200000)
I0509 19:53:06.888396  4089 net.cpp:165] Memory required for data: 1423200084
I0509 19:53:06.888415  4089 layer_factory.hpp:77] Creating layer scale3a_branch2a
I0509 19:53:06.888439  4089 net.cpp:100] Creating Layer scale3a_branch2a
I0509 19:53:06.888456  4089 net.cpp:444] scale3a_branch2a <- res3a_branch2a
I0509 19:53:06.888473  4089 net.cpp:405] scale3a_branch2a -> res3a_branch2a (in-place)
I0509 19:53:06.888550  4089 layer_factory.hpp:77] Creating layer scale3a_branch2a
I0509 19:53:06.888761  4089 net.cpp:150] Setting up scale3a_branch2a
I0509 19:53:06.888787  4089 net.cpp:157] Top shape: 1 128 75 125 (1200000)
I0509 19:53:06.888802  4089 net.cpp:165] Memory required for data: 1428000084
I0509 19:53:06.888818  4089 layer_factory.hpp:77] Creating layer res3a_branch2a_relu
I0509 19:53:06.888839  4089 net.cpp:100] Creating Layer res3a_branch2a_relu
I0509 19:53:06.888854  4089 net.cpp:444] res3a_branch2a_relu <- res3a_branch2a
I0509 19:53:06.888870  4089 net.cpp:405] res3a_branch2a_relu -> res3a_branch2a (in-place)
I0509 19:53:06.888887  4089 net.cpp:150] Setting up res3a_branch2a_relu
I0509 19:53:06.888905  4089 net.cpp:157] Top shape: 1 128 75 125 (1200000)
I0509 19:53:06.888917  4089 net.cpp:165] Memory required for data: 1432800084
I0509 19:53:06.888931  4089 layer_factory.hpp:77] Creating layer res3a_branch2b
I0509 19:53:06.888954  4089 net.cpp:100] Creating Layer res3a_branch2b
I0509 19:53:06.888969  4089 net.cpp:444] res3a_branch2b <- res3a_branch2a
I0509 19:53:06.888986  4089 net.cpp:418] res3a_branch2b -> res3a_branch2b
I0509 19:53:06.889428  4089 net.cpp:150] Setting up res3a_branch2b
I0509 19:53:06.889452  4089 net.cpp:157] Top shape: 1 128 75 125 (1200000)
I0509 19:53:06.889467  4089 net.cpp:165] Memory required for data: 1437600084
I0509 19:53:06.889483  4089 layer_factory.hpp:77] Creating layer bn3a_branch2b
I0509 19:53:06.889504  4089 net.cpp:100] Creating Layer bn3a_branch2b
I0509 19:53:06.889519  4089 net.cpp:444] bn3a_branch2b <- res3a_branch2b
I0509 19:53:06.889538  4089 net.cpp:405] bn3a_branch2b -> res3a_branch2b (in-place)
I0509 19:53:06.889870  4089 net.cpp:150] Setting up bn3a_branch2b
I0509 19:53:06.889896  4089 net.cpp:157] Top shape: 1 128 75 125 (1200000)
I0509 19:53:06.889911  4089 net.cpp:165] Memory required for data: 1442400084
I0509 19:53:06.889932  4089 layer_factory.hpp:77] Creating layer scale3a_branch2b
I0509 19:53:06.889955  4089 net.cpp:100] Creating Layer scale3a_branch2b
I0509 19:53:06.889972  4089 net.cpp:444] scale3a_branch2b <- res3a_branch2b
I0509 19:53:06.889992  4089 net.cpp:405] scale3a_branch2b -> res3a_branch2b (in-place)
I0509 19:53:06.890069  4089 layer_factory.hpp:77] Creating layer scale3a_branch2b
I0509 19:53:06.890290  4089 net.cpp:150] Setting up scale3a_branch2b
I0509 19:53:06.890317  4089 net.cpp:157] Top shape: 1 128 75 125 (1200000)
I0509 19:53:06.890332  4089 net.cpp:165] Memory required for data: 1447200084
I0509 19:53:06.890352  4089 layer_factory.hpp:77] Creating layer res3a_branch2b_relu
I0509 19:53:06.890368  4089 net.cpp:100] Creating Layer res3a_branch2b_relu
I0509 19:53:06.890384  4089 net.cpp:444] res3a_branch2b_relu <- res3a_branch2b
I0509 19:53:06.890401  4089 net.cpp:405] res3a_branch2b_relu -> res3a_branch2b (in-place)
I0509 19:53:06.890420  4089 net.cpp:150] Setting up res3a_branch2b_relu
I0509 19:53:06.890436  4089 net.cpp:157] Top shape: 1 128 75 125 (1200000)
I0509 19:53:06.890450  4089 net.cpp:165] Memory required for data: 1452000084
I0509 19:53:06.890465  4089 layer_factory.hpp:77] Creating layer res3a_branch2c
I0509 19:53:06.890486  4089 net.cpp:100] Creating Layer res3a_branch2c
I0509 19:53:06.890501  4089 net.cpp:444] res3a_branch2c <- res3a_branch2b
I0509 19:53:06.890518  4089 net.cpp:418] res3a_branch2c -> res3a_branch2c
I0509 19:53:06.890909  4089 net.cpp:150] Setting up res3a_branch2c
I0509 19:53:06.890936  4089 net.cpp:157] Top shape: 1 512 75 125 (4800000)
I0509 19:53:06.890952  4089 net.cpp:165] Memory required for data: 1471200084
I0509 19:53:06.890969  4089 layer_factory.hpp:77] Creating layer bn3a_branch2c
I0509 19:53:06.890988  4089 net.cpp:100] Creating Layer bn3a_branch2c
I0509 19:53:06.891005  4089 net.cpp:444] bn3a_branch2c <- res3a_branch2c
I0509 19:53:06.891028  4089 net.cpp:405] bn3a_branch2c -> res3a_branch2c (in-place)
I0509 19:53:06.891367  4089 net.cpp:150] Setting up bn3a_branch2c
I0509 19:53:06.891393  4089 net.cpp:157] Top shape: 1 512 75 125 (4800000)
I0509 19:53:06.891409  4089 net.cpp:165] Memory required for data: 1490400084
I0509 19:53:06.891429  4089 layer_factory.hpp:77] Creating layer scale3a_branch2c
I0509 19:53:06.891453  4089 net.cpp:100] Creating Layer scale3a_branch2c
I0509 19:53:06.891468  4089 net.cpp:444] scale3a_branch2c <- res3a_branch2c
I0509 19:53:06.891492  4089 net.cpp:405] scale3a_branch2c -> res3a_branch2c (in-place)
I0509 19:53:06.891569  4089 layer_factory.hpp:77] Creating layer scale3a_branch2c
I0509 19:53:06.891798  4089 net.cpp:150] Setting up scale3a_branch2c
I0509 19:53:06.891821  4089 net.cpp:157] Top shape: 1 512 75 125 (4800000)
I0509 19:53:06.891835  4089 net.cpp:165] Memory required for data: 1509600084
I0509 19:53:06.891854  4089 layer_factory.hpp:77] Creating layer res3a
I0509 19:53:06.891870  4089 net.cpp:100] Creating Layer res3a
I0509 19:53:06.891885  4089 net.cpp:444] res3a <- res3a_branch1
I0509 19:53:06.891899  4089 net.cpp:444] res3a <- res3a_branch2c
I0509 19:53:06.891917  4089 net.cpp:418] res3a -> res3a
I0509 19:53:06.891973  4089 net.cpp:150] Setting up res3a
I0509 19:53:06.891994  4089 net.cpp:157] Top shape: 1 512 75 125 (4800000)
I0509 19:53:06.892007  4089 net.cpp:165] Memory required for data: 1528800084
I0509 19:53:06.892021  4089 layer_factory.hpp:77] Creating layer res3a_relu
I0509 19:53:06.892037  4089 net.cpp:100] Creating Layer res3a_relu
I0509 19:53:06.892051  4089 net.cpp:444] res3a_relu <- res3a
I0509 19:53:06.892068  4089 net.cpp:405] res3a_relu -> res3a (in-place)
I0509 19:53:06.892086  4089 net.cpp:150] Setting up res3a_relu
I0509 19:53:06.892102  4089 net.cpp:157] Top shape: 1 512 75 125 (4800000)
I0509 19:53:06.892115  4089 net.cpp:165] Memory required for data: 1548000084
I0509 19:53:06.892128  4089 layer_factory.hpp:77] Creating layer res3a_res3a_relu_0_split
I0509 19:53:06.892144  4089 net.cpp:100] Creating Layer res3a_res3a_relu_0_split
I0509 19:53:06.892158  4089 net.cpp:444] res3a_res3a_relu_0_split <- res3a
I0509 19:53:06.892176  4089 net.cpp:418] res3a_res3a_relu_0_split -> res3a_res3a_relu_0_split_0
I0509 19:53:06.892194  4089 net.cpp:418] res3a_res3a_relu_0_split -> res3a_res3a_relu_0_split_1
I0509 19:53:06.892264  4089 net.cpp:150] Setting up res3a_res3a_relu_0_split
I0509 19:53:06.892284  4089 net.cpp:157] Top shape: 1 512 75 125 (4800000)
I0509 19:53:06.892299  4089 net.cpp:157] Top shape: 1 512 75 125 (4800000)
I0509 19:53:06.892314  4089 net.cpp:165] Memory required for data: 1586400084
I0509 19:53:06.892328  4089 layer_factory.hpp:77] Creating layer res3b1_branch2a
I0509 19:53:06.892350  4089 net.cpp:100] Creating Layer res3b1_branch2a
I0509 19:53:06.892365  4089 net.cpp:444] res3b1_branch2a <- res3a_res3a_relu_0_split_0
I0509 19:53:06.892385  4089 net.cpp:418] res3b1_branch2a -> res3b1_branch2a
I0509 19:53:06.892758  4089 net.cpp:150] Setting up res3b1_branch2a
I0509 19:53:06.892782  4089 net.cpp:157] Top shape: 1 128 75 125 (1200000)
I0509 19:53:06.892797  4089 net.cpp:165] Memory required for data: 1591200084
I0509 19:53:06.892814  4089 layer_factory.hpp:77] Creating layer bn3b1_branch2a
I0509 19:53:06.892833  4089 net.cpp:100] Creating Layer bn3b1_branch2a
I0509 19:53:06.892848  4089 net.cpp:444] bn3b1_branch2a <- res3b1_branch2a
I0509 19:53:06.892866  4089 net.cpp:405] bn3b1_branch2a -> res3b1_branch2a (in-place)
I0509 19:53:06.893201  4089 net.cpp:150] Setting up bn3b1_branch2a
I0509 19:53:06.893226  4089 net.cpp:157] Top shape: 1 128 75 125 (1200000)
I0509 19:53:06.893240  4089 net.cpp:165] Memory required for data: 1596000084
I0509 19:53:06.893260  4089 layer_factory.hpp:77] Creating layer scale3b1_branch2a
I0509 19:53:06.893280  4089 net.cpp:100] Creating Layer scale3b1_branch2a
I0509 19:53:06.893296  4089 net.cpp:444] scale3b1_branch2a <- res3b1_branch2a
I0509 19:53:06.893312  4089 net.cpp:405] scale3b1_branch2a -> res3b1_branch2a (in-place)
I0509 19:53:06.893393  4089 layer_factory.hpp:77] Creating layer scale3b1_branch2a
I0509 19:53:06.893609  4089 net.cpp:150] Setting up scale3b1_branch2a
I0509 19:53:06.893637  4089 net.cpp:157] Top shape: 1 128 75 125 (1200000)
I0509 19:53:06.893652  4089 net.cpp:165] Memory required for data: 1600800084
I0509 19:53:06.893672  4089 layer_factory.hpp:77] Creating layer res3b1_branch2a_relu
I0509 19:53:06.893695  4089 net.cpp:100] Creating Layer res3b1_branch2a_relu
I0509 19:53:06.893710  4089 net.cpp:444] res3b1_branch2a_relu <- res3b1_branch2a
I0509 19:53:06.893725  4089 net.cpp:405] res3b1_branch2a_relu -> res3b1_branch2a (in-place)
I0509 19:53:06.893746  4089 net.cpp:150] Setting up res3b1_branch2a_relu
I0509 19:53:06.893764  4089 net.cpp:157] Top shape: 1 128 75 125 (1200000)
I0509 19:53:06.893779  4089 net.cpp:165] Memory required for data: 1605600084
I0509 19:53:06.893795  4089 layer_factory.hpp:77] Creating layer res3b1_branch2b
I0509 19:53:06.893815  4089 net.cpp:100] Creating Layer res3b1_branch2b
I0509 19:53:06.893831  4089 net.cpp:444] res3b1_branch2b <- res3b1_branch2a
I0509 19:53:06.893851  4089 net.cpp:418] res3b1_branch2b -> res3b1_branch2b
I0509 19:53:06.894299  4089 net.cpp:150] Setting up res3b1_branch2b
I0509 19:53:06.894331  4089 net.cpp:157] Top shape: 1 128 75 125 (1200000)
I0509 19:53:06.894345  4089 net.cpp:165] Memory required for data: 1610400084
I0509 19:53:06.894361  4089 layer_factory.hpp:77] Creating layer bn3b1_branch2b
I0509 19:53:06.894381  4089 net.cpp:100] Creating Layer bn3b1_branch2b
I0509 19:53:06.894397  4089 net.cpp:444] bn3b1_branch2b <- res3b1_branch2b
I0509 19:53:06.894423  4089 net.cpp:405] bn3b1_branch2b -> res3b1_branch2b (in-place)
I0509 19:53:06.894773  4089 net.cpp:150] Setting up bn3b1_branch2b
I0509 19:53:06.894799  4089 net.cpp:157] Top shape: 1 128 75 125 (1200000)
I0509 19:53:06.894815  4089 net.cpp:165] Memory required for data: 1615200084
I0509 19:53:06.894834  4089 layer_factory.hpp:77] Creating layer scale3b1_branch2b
I0509 19:53:06.894855  4089 net.cpp:100] Creating Layer scale3b1_branch2b
I0509 19:53:06.894870  4089 net.cpp:444] scale3b1_branch2b <- res3b1_branch2b
I0509 19:53:06.894886  4089 net.cpp:405] scale3b1_branch2b -> res3b1_branch2b (in-place)
I0509 19:53:06.894961  4089 layer_factory.hpp:77] Creating layer scale3b1_branch2b
I0509 19:53:06.895184  4089 net.cpp:150] Setting up scale3b1_branch2b
I0509 19:53:06.895210  4089 net.cpp:157] Top shape: 1 128 75 125 (1200000)
I0509 19:53:06.895227  4089 net.cpp:165] Memory required for data: 1620000084
I0509 19:53:06.895247  4089 layer_factory.hpp:77] Creating layer res3b1_branch2b_relu
I0509 19:53:06.895268  4089 net.cpp:100] Creating Layer res3b1_branch2b_relu
I0509 19:53:06.895284  4089 net.cpp:444] res3b1_branch2b_relu <- res3b1_branch2b
I0509 19:53:06.895309  4089 net.cpp:405] res3b1_branch2b_relu -> res3b1_branch2b (in-place)
I0509 19:53:06.895330  4089 net.cpp:150] Setting up res3b1_branch2b_relu
I0509 19:53:06.895349  4089 net.cpp:157] Top shape: 1 128 75 125 (1200000)
I0509 19:53:06.895361  4089 net.cpp:165] Memory required for data: 1624800084
I0509 19:53:06.895375  4089 layer_factory.hpp:77] Creating layer res3b1_branch2c
I0509 19:53:06.895395  4089 net.cpp:100] Creating Layer res3b1_branch2c
I0509 19:53:06.895408  4089 net.cpp:444] res3b1_branch2c <- res3b1_branch2b
I0509 19:53:06.895426  4089 net.cpp:418] res3b1_branch2c -> res3b1_branch2c
I0509 19:53:06.895818  4089 net.cpp:150] Setting up res3b1_branch2c
I0509 19:53:06.895848  4089 net.cpp:157] Top shape: 1 512 75 125 (4800000)
I0509 19:53:06.895864  4089 net.cpp:165] Memory required for data: 1644000084
I0509 19:53:06.895882  4089 layer_factory.hpp:77] Creating layer bn3b1_branch2c
I0509 19:53:06.895905  4089 net.cpp:100] Creating Layer bn3b1_branch2c
I0509 19:53:06.895921  4089 net.cpp:444] bn3b1_branch2c <- res3b1_branch2c
I0509 19:53:06.895938  4089 net.cpp:405] bn3b1_branch2c -> res3b1_branch2c (in-place)
I0509 19:53:06.896306  4089 net.cpp:150] Setting up bn3b1_branch2c
I0509 19:53:06.896335  4089 net.cpp:157] Top shape: 1 512 75 125 (4800000)
I0509 19:53:06.896353  4089 net.cpp:165] Memory required for data: 1663200084
I0509 19:53:06.896374  4089 layer_factory.hpp:77] Creating layer scale3b1_branch2c
I0509 19:53:06.896394  4089 net.cpp:100] Creating Layer scale3b1_branch2c
I0509 19:53:06.896409  4089 net.cpp:444] scale3b1_branch2c <- res3b1_branch2c
I0509 19:53:06.896426  4089 net.cpp:405] scale3b1_branch2c -> res3b1_branch2c (in-place)
I0509 19:53:06.896498  4089 layer_factory.hpp:77] Creating layer scale3b1_branch2c
I0509 19:53:06.896739  4089 net.cpp:150] Setting up scale3b1_branch2c
I0509 19:53:06.896766  4089 net.cpp:157] Top shape: 1 512 75 125 (4800000)
I0509 19:53:06.896783  4089 net.cpp:165] Memory required for data: 1682400084
I0509 19:53:06.896801  4089 layer_factory.hpp:77] Creating layer res3b1
I0509 19:53:06.896821  4089 net.cpp:100] Creating Layer res3b1
I0509 19:53:06.896836  4089 net.cpp:444] res3b1 <- res3a_res3a_relu_0_split_1
I0509 19:53:06.896852  4089 net.cpp:444] res3b1 <- res3b1_branch2c
I0509 19:53:06.896868  4089 net.cpp:418] res3b1 -> res3b1
I0509 19:53:06.896920  4089 net.cpp:150] Setting up res3b1
I0509 19:53:06.896944  4089 net.cpp:157] Top shape: 1 512 75 125 (4800000)
I0509 19:53:06.896958  4089 net.cpp:165] Memory required for data: 1701600084
I0509 19:53:06.896977  4089 layer_factory.hpp:77] Creating layer res3b1_relu
I0509 19:53:06.896996  4089 net.cpp:100] Creating Layer res3b1_relu
I0509 19:53:06.897009  4089 net.cpp:444] res3b1_relu <- res3b1
I0509 19:53:06.897023  4089 net.cpp:405] res3b1_relu -> res3b1 (in-place)
I0509 19:53:06.897042  4089 net.cpp:150] Setting up res3b1_relu
I0509 19:53:06.897059  4089 net.cpp:157] Top shape: 1 512 75 125 (4800000)
I0509 19:53:06.897073  4089 net.cpp:165] Memory required for data: 1720800084
I0509 19:53:06.897089  4089 layer_factory.hpp:77] Creating layer res3b1_res3b1_relu_0_split
I0509 19:53:06.897105  4089 net.cpp:100] Creating Layer res3b1_res3b1_relu_0_split
I0509 19:53:06.897119  4089 net.cpp:444] res3b1_res3b1_relu_0_split <- res3b1
I0509 19:53:06.897140  4089 net.cpp:418] res3b1_res3b1_relu_0_split -> res3b1_res3b1_relu_0_split_0
I0509 19:53:06.897159  4089 net.cpp:418] res3b1_res3b1_relu_0_split -> res3b1_res3b1_relu_0_split_1
I0509 19:53:06.897236  4089 net.cpp:150] Setting up res3b1_res3b1_relu_0_split
I0509 19:53:06.897258  4089 net.cpp:157] Top shape: 1 512 75 125 (4800000)
I0509 19:53:06.897275  4089 net.cpp:157] Top shape: 1 512 75 125 (4800000)
I0509 19:53:06.897289  4089 net.cpp:165] Memory required for data: 1759200084
I0509 19:53:06.897303  4089 layer_factory.hpp:77] Creating layer res3b2_branch2a
I0509 19:53:06.897323  4089 net.cpp:100] Creating Layer res3b2_branch2a
I0509 19:53:06.897339  4089 net.cpp:444] res3b2_branch2a <- res3b1_res3b1_relu_0_split_0
I0509 19:53:06.897361  4089 net.cpp:418] res3b2_branch2a -> res3b2_branch2a
I0509 19:53:06.897728  4089 net.cpp:150] Setting up res3b2_branch2a
I0509 19:53:06.897754  4089 net.cpp:157] Top shape: 1 128 75 125 (1200000)
I0509 19:53:06.897773  4089 net.cpp:165] Memory required for data: 1764000084
I0509 19:53:06.897791  4089 layer_factory.hpp:77] Creating layer bn3b2_branch2a
I0509 19:53:06.897811  4089 net.cpp:100] Creating Layer bn3b2_branch2a
I0509 19:53:06.897828  4089 net.cpp:444] bn3b2_branch2a <- res3b2_branch2a
I0509 19:53:06.897846  4089 net.cpp:405] bn3b2_branch2a -> res3b2_branch2a (in-place)
I0509 19:53:06.898206  4089 net.cpp:150] Setting up bn3b2_branch2a
I0509 19:53:06.898233  4089 net.cpp:157] Top shape: 1 128 75 125 (1200000)
I0509 19:53:06.898249  4089 net.cpp:165] Memory required for data: 1768800084
I0509 19:53:06.898270  4089 layer_factory.hpp:77] Creating layer scale3b2_branch2a
I0509 19:53:06.898293  4089 net.cpp:100] Creating Layer scale3b2_branch2a
I0509 19:53:06.898308  4089 net.cpp:444] scale3b2_branch2a <- res3b2_branch2a
I0509 19:53:06.898324  4089 net.cpp:405] scale3b2_branch2a -> res3b2_branch2a (in-place)
I0509 19:53:06.898403  4089 layer_factory.hpp:77] Creating layer scale3b2_branch2a
I0509 19:53:06.898623  4089 net.cpp:150] Setting up scale3b2_branch2a
I0509 19:53:06.898649  4089 net.cpp:157] Top shape: 1 128 75 125 (1200000)
I0509 19:53:06.898663  4089 net.cpp:165] Memory required for data: 1773600084
I0509 19:53:06.898681  4089 layer_factory.hpp:77] Creating layer res3b2_branch2a_relu
I0509 19:53:06.898699  4089 net.cpp:100] Creating Layer res3b2_branch2a_relu
I0509 19:53:06.898713  4089 net.cpp:444] res3b2_branch2a_relu <- res3b2_branch2a
I0509 19:53:06.898731  4089 net.cpp:405] res3b2_branch2a_relu -> res3b2_branch2a (in-place)
I0509 19:53:06.898751  4089 net.cpp:150] Setting up res3b2_branch2a_relu
I0509 19:53:06.898766  4089 net.cpp:157] Top shape: 1 128 75 125 (1200000)
I0509 19:53:06.898780  4089 net.cpp:165] Memory required for data: 1778400084
I0509 19:53:06.898793  4089 layer_factory.hpp:77] Creating layer res3b2_branch2b
I0509 19:53:06.898813  4089 net.cpp:100] Creating Layer res3b2_branch2b
I0509 19:53:06.898826  4089 net.cpp:444] res3b2_branch2b <- res3b2_branch2a
I0509 19:53:06.898844  4089 net.cpp:418] res3b2_branch2b -> res3b2_branch2b
I0509 19:53:06.900756  4089 net.cpp:150] Setting up res3b2_branch2b
I0509 19:53:06.900799  4089 net.cpp:157] Top shape: 1 128 75 125 (1200000)
I0509 19:53:06.900817  4089 net.cpp:165] Memory required for data: 1783200084
I0509 19:53:06.900836  4089 layer_factory.hpp:77] Creating layer bn3b2_branch2b
I0509 19:53:06.900866  4089 net.cpp:100] Creating Layer bn3b2_branch2b
I0509 19:53:06.900884  4089 net.cpp:444] bn3b2_branch2b <- res3b2_branch2b
I0509 19:53:06.900904  4089 net.cpp:405] bn3b2_branch2b -> res3b2_branch2b (in-place)
I0509 19:53:06.901252  4089 net.cpp:150] Setting up bn3b2_branch2b
I0509 19:53:06.901276  4089 net.cpp:157] Top shape: 1 128 75 125 (1200000)
I0509 19:53:06.901293  4089 net.cpp:165] Memory required for data: 1788000084
I0509 19:53:06.901312  4089 layer_factory.hpp:77] Creating layer scale3b2_branch2b
I0509 19:53:06.901335  4089 net.cpp:100] Creating Layer scale3b2_branch2b
I0509 19:53:06.901353  4089 net.cpp:444] scale3b2_branch2b <- res3b2_branch2b
I0509 19:53:06.901371  4089 net.cpp:405] scale3b2_branch2b -> res3b2_branch2b (in-place)
I0509 19:53:06.901449  4089 layer_factory.hpp:77] Creating layer scale3b2_branch2b
I0509 19:53:06.901669  4089 net.cpp:150] Setting up scale3b2_branch2b
I0509 19:53:06.901695  4089 net.cpp:157] Top shape: 1 128 75 125 (1200000)
I0509 19:53:06.901711  4089 net.cpp:165] Memory required for data: 1792800084
I0509 19:53:06.901728  4089 layer_factory.hpp:77] Creating layer res3b2_branch2b_relu
I0509 19:53:06.901748  4089 net.cpp:100] Creating Layer res3b2_branch2b_relu
I0509 19:53:06.901763  4089 net.cpp:444] res3b2_branch2b_relu <- res3b2_branch2b
I0509 19:53:06.901779  4089 net.cpp:405] res3b2_branch2b_relu -> res3b2_branch2b (in-place)
I0509 19:53:06.901799  4089 net.cpp:150] Setting up res3b2_branch2b_relu
I0509 19:53:06.901818  4089 net.cpp:157] Top shape: 1 128 75 125 (1200000)
I0509 19:53:06.901831  4089 net.cpp:165] Memory required for data: 1797600084
I0509 19:53:06.901845  4089 layer_factory.hpp:77] Creating layer res3b2_branch2c
I0509 19:53:06.901863  4089 net.cpp:100] Creating Layer res3b2_branch2c
I0509 19:53:06.901878  4089 net.cpp:444] res3b2_branch2c <- res3b2_branch2b
I0509 19:53:06.901896  4089 net.cpp:418] res3b2_branch2c -> res3b2_branch2c
I0509 19:53:06.903657  4089 net.cpp:150] Setting up res3b2_branch2c
I0509 19:53:06.903695  4089 net.cpp:157] Top shape: 1 512 75 125 (4800000)
I0509 19:53:06.903712  4089 net.cpp:165] Memory required for data: 1816800084
I0509 19:53:06.903729  4089 layer_factory.hpp:77] Creating layer bn3b2_branch2c
I0509 19:53:06.903750  4089 net.cpp:100] Creating Layer bn3b2_branch2c
I0509 19:53:06.903765  4089 net.cpp:444] bn3b2_branch2c <- res3b2_branch2c
I0509 19:53:06.903782  4089 net.cpp:405] bn3b2_branch2c -> res3b2_branch2c (in-place)
I0509 19:53:06.904144  4089 net.cpp:150] Setting up bn3b2_branch2c
I0509 19:53:06.904171  4089 net.cpp:157] Top shape: 1 512 75 125 (4800000)
I0509 19:53:06.904186  4089 net.cpp:165] Memory required for data: 1836000084
I0509 19:53:06.904206  4089 layer_factory.hpp:77] Creating layer scale3b2_branch2c
I0509 19:53:06.904225  4089 net.cpp:100] Creating Layer scale3b2_branch2c
I0509 19:53:06.904242  4089 net.cpp:444] scale3b2_branch2c <- res3b2_branch2c
I0509 19:53:06.904261  4089 net.cpp:405] scale3b2_branch2c -> res3b2_branch2c (in-place)
I0509 19:53:06.904340  4089 layer_factory.hpp:77] Creating layer scale3b2_branch2c
I0509 19:53:06.904580  4089 net.cpp:150] Setting up scale3b2_branch2c
I0509 19:53:06.904606  4089 net.cpp:157] Top shape: 1 512 75 125 (4800000)
I0509 19:53:06.904624  4089 net.cpp:165] Memory required for data: 1855200084
I0509 19:53:06.904644  4089 layer_factory.hpp:77] Creating layer res3b2
I0509 19:53:06.904662  4089 net.cpp:100] Creating Layer res3b2
I0509 19:53:06.904681  4089 net.cpp:444] res3b2 <- res3b1_res3b1_relu_0_split_1
I0509 19:53:06.904697  4089 net.cpp:444] res3b2 <- res3b2_branch2c
I0509 19:53:06.904713  4089 net.cpp:418] res3b2 -> res3b2
I0509 19:53:06.904768  4089 net.cpp:150] Setting up res3b2
I0509 19:53:06.904791  4089 net.cpp:157] Top shape: 1 512 75 125 (4800000)
I0509 19:53:06.904805  4089 net.cpp:165] Memory required for data: 1874400084
I0509 19:53:06.904819  4089 layer_factory.hpp:77] Creating layer res3b2_relu
I0509 19:53:06.904835  4089 net.cpp:100] Creating Layer res3b2_relu
I0509 19:53:06.904856  4089 net.cpp:444] res3b2_relu <- res3b2
I0509 19:53:06.904875  4089 net.cpp:405] res3b2_relu -> res3b2 (in-place)
I0509 19:53:06.904893  4089 net.cpp:150] Setting up res3b2_relu
I0509 19:53:06.904911  4089 net.cpp:157] Top shape: 1 512 75 125 (4800000)
I0509 19:53:06.904924  4089 net.cpp:165] Memory required for data: 1893600084
I0509 19:53:06.904939  4089 layer_factory.hpp:77] Creating layer res3b2_res3b2_relu_0_split
I0509 19:53:06.904959  4089 net.cpp:100] Creating Layer res3b2_res3b2_relu_0_split
I0509 19:53:06.904975  4089 net.cpp:444] res3b2_res3b2_relu_0_split <- res3b2
I0509 19:53:06.904991  4089 net.cpp:418] res3b2_res3b2_relu_0_split -> res3b2_res3b2_relu_0_split_0
I0509 19:53:06.905009  4089 net.cpp:418] res3b2_res3b2_relu_0_split -> res3b2_res3b2_relu_0_split_1
I0509 19:53:06.905087  4089 net.cpp:150] Setting up res3b2_res3b2_relu_0_split
I0509 19:53:06.905108  4089 net.cpp:157] Top shape: 1 512 75 125 (4800000)
I0509 19:53:06.905123  4089 net.cpp:157] Top shape: 1 512 75 125 (4800000)
I0509 19:53:06.905139  4089 net.cpp:165] Memory required for data: 1932000084
I0509 19:53:06.905154  4089 layer_factory.hpp:77] Creating layer res3b3_branch2a
I0509 19:53:06.905174  4089 net.cpp:100] Creating Layer res3b3_branch2a
I0509 19:53:06.905194  4089 net.cpp:444] res3b3_branch2a <- res3b2_res3b2_relu_0_split_0
I0509 19:53:06.905213  4089 net.cpp:418] res3b3_branch2a -> res3b3_branch2a
I0509 19:53:06.905580  4089 net.cpp:150] Setting up res3b3_branch2a
I0509 19:53:06.905603  4089 net.cpp:157] Top shape: 1 128 75 125 (1200000)
I0509 19:53:06.905617  4089 net.cpp:165] Memory required for data: 1936800084
I0509 19:53:06.905634  4089 layer_factory.hpp:77] Creating layer bn3b3_branch2a
I0509 19:53:06.905653  4089 net.cpp:100] Creating Layer bn3b3_branch2a
I0509 19:53:06.905669  4089 net.cpp:444] bn3b3_branch2a <- res3b3_branch2a
I0509 19:53:06.905689  4089 net.cpp:405] bn3b3_branch2a -> res3b3_branch2a (in-place)
I0509 19:53:06.906015  4089 net.cpp:150] Setting up bn3b3_branch2a
I0509 19:53:06.906042  4089 net.cpp:157] Top shape: 1 128 75 125 (1200000)
I0509 19:53:06.906056  4089 net.cpp:165] Memory required for data: 1941600084
I0509 19:53:06.906090  4089 layer_factory.hpp:77] Creating layer scale3b3_branch2a
I0509 19:53:06.906111  4089 net.cpp:100] Creating Layer scale3b3_branch2a
I0509 19:53:06.906126  4089 net.cpp:444] scale3b3_branch2a <- res3b3_branch2a
I0509 19:53:06.906144  4089 net.cpp:405] scale3b3_branch2a -> res3b3_branch2a (in-place)
I0509 19:53:06.906227  4089 layer_factory.hpp:77] Creating layer scale3b3_branch2a
I0509 19:53:06.906455  4089 net.cpp:150] Setting up scale3b3_branch2a
I0509 19:53:06.906482  4089 net.cpp:157] Top shape: 1 128 75 125 (1200000)
I0509 19:53:06.906499  4089 net.cpp:165] Memory required for data: 1946400084
I0509 19:53:06.906519  4089 layer_factory.hpp:77] Creating layer res3b3_branch2a_relu
I0509 19:53:06.906538  4089 net.cpp:100] Creating Layer res3b3_branch2a_relu
I0509 19:53:06.906553  4089 net.cpp:444] res3b3_branch2a_relu <- res3b3_branch2a
I0509 19:53:06.906571  4089 net.cpp:405] res3b3_branch2a_relu -> res3b3_branch2a (in-place)
I0509 19:53:06.906592  4089 net.cpp:150] Setting up res3b3_branch2a_relu
I0509 19:53:06.906610  4089 net.cpp:157] Top shape: 1 128 75 125 (1200000)
I0509 19:53:06.906625  4089 net.cpp:165] Memory required for data: 1951200084
I0509 19:53:06.906638  4089 layer_factory.hpp:77] Creating layer res3b3_branch2b
I0509 19:53:06.906661  4089 net.cpp:100] Creating Layer res3b3_branch2b
I0509 19:53:06.906675  4089 net.cpp:444] res3b3_branch2b <- res3b3_branch2a
I0509 19:53:06.906692  4089 net.cpp:418] res3b3_branch2b -> res3b3_branch2b
I0509 19:53:06.907156  4089 net.cpp:150] Setting up res3b3_branch2b
I0509 19:53:06.907188  4089 net.cpp:157] Top shape: 1 128 75 125 (1200000)
I0509 19:53:06.907204  4089 net.cpp:165] Memory required for data: 1956000084
I0509 19:53:06.907220  4089 layer_factory.hpp:77] Creating layer bn3b3_branch2b
I0509 19:53:06.907238  4089 net.cpp:100] Creating Layer bn3b3_branch2b
I0509 19:53:06.907253  4089 net.cpp:444] bn3b3_branch2b <- res3b3_branch2b
I0509 19:53:06.907276  4089 net.cpp:405] bn3b3_branch2b -> res3b3_branch2b (in-place)
I0509 19:53:06.907614  4089 net.cpp:150] Setting up bn3b3_branch2b
I0509 19:53:06.907642  4089 net.cpp:157] Top shape: 1 128 75 125 (1200000)
I0509 19:53:06.907657  4089 net.cpp:165] Memory required for data: 1960800084
I0509 19:53:06.907676  4089 layer_factory.hpp:77] Creating layer scale3b3_branch2b
I0509 19:53:06.907696  4089 net.cpp:100] Creating Layer scale3b3_branch2b
I0509 19:53:06.907711  4089 net.cpp:444] scale3b3_branch2b <- res3b3_branch2b
I0509 19:53:06.907728  4089 net.cpp:405] scale3b3_branch2b -> res3b3_branch2b (in-place)
I0509 19:53:06.907812  4089 layer_factory.hpp:77] Creating layer scale3b3_branch2b
I0509 19:53:06.908041  4089 net.cpp:150] Setting up scale3b3_branch2b
I0509 19:53:06.908069  4089 net.cpp:157] Top shape: 1 128 75 125 (1200000)
I0509 19:53:06.908084  4089 net.cpp:165] Memory required for data: 1965600084
I0509 19:53:06.908102  4089 layer_factory.hpp:77] Creating layer res3b3_branch2b_relu
I0509 19:53:06.908120  4089 net.cpp:100] Creating Layer res3b3_branch2b_relu
I0509 19:53:06.908136  4089 net.cpp:444] res3b3_branch2b_relu <- res3b3_branch2b
I0509 19:53:06.908155  4089 net.cpp:405] res3b3_branch2b_relu -> res3b3_branch2b (in-place)
I0509 19:53:06.908174  4089 net.cpp:150] Setting up res3b3_branch2b_relu
I0509 19:53:06.908191  4089 net.cpp:157] Top shape: 1 128 75 125 (1200000)
I0509 19:53:06.908205  4089 net.cpp:165] Memory required for data: 1970400084
I0509 19:53:06.908219  4089 layer_factory.hpp:77] Creating layer res3b3_branch2c
I0509 19:53:06.908236  4089 net.cpp:100] Creating Layer res3b3_branch2c
I0509 19:53:06.908251  4089 net.cpp:444] res3b3_branch2c <- res3b3_branch2b
I0509 19:53:06.908267  4089 net.cpp:418] res3b3_branch2c -> res3b3_branch2c
I0509 19:53:06.908643  4089 net.cpp:150] Setting up res3b3_branch2c
I0509 19:53:06.908670  4089 net.cpp:157] Top shape: 1 512 75 125 (4800000)
I0509 19:53:06.908686  4089 net.cpp:165] Memory required for data: 1989600084
I0509 19:53:06.908702  4089 layer_factory.hpp:77] Creating layer bn3b3_branch2c
I0509 19:53:06.908723  4089 net.cpp:100] Creating Layer bn3b3_branch2c
I0509 19:53:06.908740  4089 net.cpp:444] bn3b3_branch2c <- res3b3_branch2c
I0509 19:53:06.908756  4089 net.cpp:405] bn3b3_branch2c -> res3b3_branch2c (in-place)
I0509 19:53:06.909096  4089 net.cpp:150] Setting up bn3b3_branch2c
I0509 19:53:06.909121  4089 net.cpp:157] Top shape: 1 512 75 125 (4800000)
I0509 19:53:06.909135  4089 net.cpp:165] Memory required for data: 2008800084
I0509 19:53:06.909154  4089 layer_factory.hpp:77] Creating layer scale3b3_branch2c
I0509 19:53:06.909179  4089 net.cpp:100] Creating Layer scale3b3_branch2c
I0509 19:53:06.909195  4089 net.cpp:444] scale3b3_branch2c <- res3b3_branch2c
I0509 19:53:06.909214  4089 net.cpp:405] scale3b3_branch2c -> res3b3_branch2c (in-place)
I0509 19:53:06.909286  4089 layer_factory.hpp:77] Creating layer scale3b3_branch2c
I0509 19:53:06.909534  4089 net.cpp:150] Setting up scale3b3_branch2c
I0509 19:53:06.909560  4089 net.cpp:157] Top shape: 1 512 75 125 (4800000)
I0509 19:53:06.909577  4089 net.cpp:165] Memory required for data: 2028000084
I0509 19:53:06.909596  4089 layer_factory.hpp:77] Creating layer res3b3
I0509 19:53:06.909618  4089 net.cpp:100] Creating Layer res3b3
I0509 19:53:06.909633  4089 net.cpp:444] res3b3 <- res3b2_res3b2_relu_0_split_1
I0509 19:53:06.909649  4089 net.cpp:444] res3b3 <- res3b3_branch2c
I0509 19:53:06.909667  4089 net.cpp:418] res3b3 -> res3b3
I0509 19:53:06.909721  4089 net.cpp:150] Setting up res3b3
I0509 19:53:06.909746  4089 net.cpp:157] Top shape: 1 512 75 125 (4800000)
I0509 19:53:06.909764  4089 net.cpp:165] Memory required for data: 2047200084
I0509 19:53:06.909778  4089 layer_factory.hpp:77] Creating layer res3b3_relu
I0509 19:53:06.909798  4089 net.cpp:100] Creating Layer res3b3_relu
I0509 19:53:06.909816  4089 net.cpp:444] res3b3_relu <- res3b3
I0509 19:53:06.909832  4089 net.cpp:405] res3b3_relu -> res3b3 (in-place)
I0509 19:53:06.909853  4089 net.cpp:150] Setting up res3b3_relu
I0509 19:53:06.909874  4089 net.cpp:157] Top shape: 1 512 75 125 (4800000)
I0509 19:53:06.909888  4089 net.cpp:165] Memory required for data: 2066400084
I0509 19:53:06.909904  4089 layer_factory.hpp:77] Creating layer res3b3_res3b3_relu_0_split
I0509 19:53:06.909921  4089 net.cpp:100] Creating Layer res3b3_res3b3_relu_0_split
I0509 19:53:06.909936  4089 net.cpp:444] res3b3_res3b3_relu_0_split <- res3b3
I0509 19:53:06.909955  4089 net.cpp:418] res3b3_res3b3_relu_0_split -> res3b3_res3b3_relu_0_split_0
I0509 19:53:06.909972  4089 net.cpp:418] res3b3_res3b3_relu_0_split -> res3b3_res3b3_relu_0_split_1
I0509 19:53:06.910048  4089 net.cpp:150] Setting up res3b3_res3b3_relu_0_split
I0509 19:53:06.910068  4089 net.cpp:157] Top shape: 1 512 75 125 (4800000)
I0509 19:53:06.910084  4089 net.cpp:157] Top shape: 1 512 75 125 (4800000)
I0509 19:53:06.910097  4089 net.cpp:165] Memory required for data: 2104800084
I0509 19:53:06.910114  4089 layer_factory.hpp:77] Creating layer res4a_branch1
I0509 19:53:06.910133  4089 net.cpp:100] Creating Layer res4a_branch1
I0509 19:53:06.910152  4089 net.cpp:444] res4a_branch1 <- res3b3_res3b3_relu_0_split_0
I0509 19:53:06.910172  4089 net.cpp:418] res4a_branch1 -> res4a_branch1
I0509 19:53:06.912405  4089 net.cpp:150] Setting up res4a_branch1
I0509 19:53:06.912451  4089 net.cpp:157] Top shape: 1 1024 38 63 (2451456)
I0509 19:53:06.912469  4089 net.cpp:165] Memory required for data: 2114605908
I0509 19:53:06.912490  4089 layer_factory.hpp:77] Creating layer bn4a_branch1
I0509 19:53:06.912513  4089 net.cpp:100] Creating Layer bn4a_branch1
I0509 19:53:06.912531  4089 net.cpp:444] bn4a_branch1 <- res4a_branch1
I0509 19:53:06.912550  4089 net.cpp:405] bn4a_branch1 -> res4a_branch1 (in-place)
I0509 19:53:06.912894  4089 net.cpp:150] Setting up bn4a_branch1
I0509 19:53:06.912921  4089 net.cpp:157] Top shape: 1 1024 38 63 (2451456)
I0509 19:53:06.912936  4089 net.cpp:165] Memory required for data: 2124411732
I0509 19:53:06.912956  4089 layer_factory.hpp:77] Creating layer scale4a_branch1
I0509 19:53:06.912981  4089 net.cpp:100] Creating Layer scale4a_branch1
I0509 19:53:06.912997  4089 net.cpp:444] scale4a_branch1 <- res4a_branch1
I0509 19:53:06.913014  4089 net.cpp:405] scale4a_branch1 -> res4a_branch1 (in-place)
I0509 19:53:06.913090  4089 layer_factory.hpp:77] Creating layer scale4a_branch1
I0509 19:53:06.913316  4089 net.cpp:150] Setting up scale4a_branch1
I0509 19:53:06.913343  4089 net.cpp:157] Top shape: 1 1024 38 63 (2451456)
I0509 19:53:06.913359  4089 net.cpp:165] Memory required for data: 2134217556
I0509 19:53:06.913379  4089 layer_factory.hpp:77] Creating layer res4a_branch2a
I0509 19:53:06.913400  4089 net.cpp:100] Creating Layer res4a_branch2a
I0509 19:53:06.913417  4089 net.cpp:444] res4a_branch2a <- res3b3_res3b3_relu_0_split_1
I0509 19:53:06.913434  4089 net.cpp:418] res4a_branch2a -> res4a_branch2a
I0509 19:53:06.913882  4089 net.cpp:150] Setting up res4a_branch2a
I0509 19:53:06.913911  4089 net.cpp:157] Top shape: 1 256 38 63 (612864)
I0509 19:53:06.913928  4089 net.cpp:165] Memory required for data: 2136669012
I0509 19:53:06.913944  4089 layer_factory.hpp:77] Creating layer bn4a_branch2a
I0509 19:53:06.913964  4089 net.cpp:100] Creating Layer bn4a_branch2a
I0509 19:53:06.913981  4089 net.cpp:444] bn4a_branch2a <- res4a_branch2a
I0509 19:53:06.913998  4089 net.cpp:405] bn4a_branch2a -> res4a_branch2a (in-place)
I0509 19:53:06.914337  4089 net.cpp:150] Setting up bn4a_branch2a
I0509 19:53:06.914363  4089 net.cpp:157] Top shape: 1 256 38 63 (612864)
I0509 19:53:06.914378  4089 net.cpp:165] Memory required for data: 2139120468
I0509 19:53:06.914397  4089 layer_factory.hpp:77] Creating layer scale4a_branch2a
I0509 19:53:06.914420  4089 net.cpp:100] Creating Layer scale4a_branch2a
I0509 19:53:06.914438  4089 net.cpp:444] scale4a_branch2a <- res4a_branch2a
I0509 19:53:06.914458  4089 net.cpp:405] scale4a_branch2a -> res4a_branch2a (in-place)
I0509 19:53:06.914542  4089 layer_factory.hpp:77] Creating layer scale4a_branch2a
I0509 19:53:06.914760  4089 net.cpp:150] Setting up scale4a_branch2a
I0509 19:53:06.914791  4089 net.cpp:157] Top shape: 1 256 38 63 (612864)
I0509 19:53:06.914808  4089 net.cpp:165] Memory required for data: 2141571924
I0509 19:53:06.914826  4089 layer_factory.hpp:77] Creating layer res4a_branch2a_relu
I0509 19:53:06.914845  4089 net.cpp:100] Creating Layer res4a_branch2a_relu
I0509 19:53:06.914860  4089 net.cpp:444] res4a_branch2a_relu <- res4a_branch2a
I0509 19:53:06.914875  4089 net.cpp:405] res4a_branch2a_relu -> res4a_branch2a (in-place)
I0509 19:53:06.914893  4089 net.cpp:150] Setting up res4a_branch2a_relu
I0509 19:53:06.914911  4089 net.cpp:157] Top shape: 1 256 38 63 (612864)
I0509 19:53:06.914924  4089 net.cpp:165] Memory required for data: 2144023380
I0509 19:53:06.914939  4089 layer_factory.hpp:77] Creating layer res4a_branch2b
I0509 19:53:06.914958  4089 net.cpp:100] Creating Layer res4a_branch2b
I0509 19:53:06.914973  4089 net.cpp:444] res4a_branch2b <- res4a_branch2a
I0509 19:53:06.914989  4089 net.cpp:418] res4a_branch2b -> res4a_branch2b
I0509 19:53:06.917291  4089 net.cpp:150] Setting up res4a_branch2b
I0509 19:53:06.917335  4089 net.cpp:157] Top shape: 1 256 38 63 (612864)
I0509 19:53:06.917351  4089 net.cpp:165] Memory required for data: 2146474836
I0509 19:53:06.917369  4089 layer_factory.hpp:77] Creating layer bn4a_branch2b
I0509 19:53:06.917390  4089 net.cpp:100] Creating Layer bn4a_branch2b
I0509 19:53:06.917407  4089 net.cpp:444] bn4a_branch2b <- res4a_branch2b
I0509 19:53:06.917425  4089 net.cpp:405] bn4a_branch2b -> res4a_branch2b (in-place)
I0509 19:53:06.917776  4089 net.cpp:150] Setting up bn4a_branch2b
I0509 19:53:06.917804  4089 net.cpp:157] Top shape: 1 256 38 63 (612864)
I0509 19:53:06.917819  4089 net.cpp:165] Memory required for data: 2148926292
I0509 19:53:06.917837  4089 layer_factory.hpp:77] Creating layer scale4a_branch2b
I0509 19:53:06.917865  4089 net.cpp:100] Creating Layer scale4a_branch2b
I0509 19:53:06.917882  4089 net.cpp:444] scale4a_branch2b <- res4a_branch2b
I0509 19:53:06.917902  4089 net.cpp:405] scale4a_branch2b -> res4a_branch2b (in-place)
I0509 19:53:06.917985  4089 layer_factory.hpp:77] Creating layer scale4a_branch2b
I0509 19:53:06.918197  4089 net.cpp:150] Setting up scale4a_branch2b
I0509 19:53:06.918226  4089 net.cpp:157] Top shape: 1 256 38 63 (612864)
I0509 19:53:06.918241  4089 net.cpp:165] Memory required for data: 2151377748
I0509 19:53:06.918258  4089 layer_factory.hpp:77] Creating layer res4a_branch2b_relu
I0509 19:53:06.918279  4089 net.cpp:100] Creating Layer res4a_branch2b_relu
I0509 19:53:06.918294  4089 net.cpp:444] res4a_branch2b_relu <- res4a_branch2b
I0509 19:53:06.918309  4089 net.cpp:405] res4a_branch2b_relu -> res4a_branch2b (in-place)
I0509 19:53:06.918328  4089 net.cpp:150] Setting up res4a_branch2b_relu
I0509 19:53:06.918344  4089 net.cpp:157] Top shape: 1 256 38 63 (612864)
I0509 19:53:06.918359  4089 net.cpp:165] Memory required for data: 2153829204
I0509 19:53:06.918375  4089 layer_factory.hpp:77] Creating layer res4a_branch2c
I0509 19:53:06.918393  4089 net.cpp:100] Creating Layer res4a_branch2c
I0509 19:53:06.918409  4089 net.cpp:444] res4a_branch2c <- res4a_branch2b
I0509 19:53:06.918426  4089 net.cpp:418] res4a_branch2c -> res4a_branch2c
I0509 19:53:06.920357  4089 net.cpp:150] Setting up res4a_branch2c
I0509 19:53:06.920397  4089 net.cpp:157] Top shape: 1 1024 38 63 (2451456)
I0509 19:53:06.920416  4089 net.cpp:165] Memory required for data: 2163635028
I0509 19:53:06.920435  4089 layer_factory.hpp:77] Creating layer bn4a_branch2c
I0509 19:53:06.920459  4089 net.cpp:100] Creating Layer bn4a_branch2c
I0509 19:53:06.920477  4089 net.cpp:444] bn4a_branch2c <- res4a_branch2c
I0509 19:53:06.920496  4089 net.cpp:405] bn4a_branch2c -> res4a_branch2c (in-place)
I0509 19:53:06.920836  4089 net.cpp:150] Setting up bn4a_branch2c
I0509 19:53:06.920866  4089 net.cpp:157] Top shape: 1 1024 38 63 (2451456)
I0509 19:53:06.920881  4089 net.cpp:165] Memory required for data: 2173440852
I0509 19:53:06.920903  4089 layer_factory.hpp:77] Creating layer scale4a_branch2c
I0509 19:53:06.920923  4089 net.cpp:100] Creating Layer scale4a_branch2c
I0509 19:53:06.920944  4089 net.cpp:444] scale4a_branch2c <- res4a_branch2c
I0509 19:53:06.920966  4089 net.cpp:405] scale4a_branch2c -> res4a_branch2c (in-place)
I0509 19:53:06.921048  4089 layer_factory.hpp:77] Creating layer scale4a_branch2c
I0509 19:53:06.921268  4089 net.cpp:150] Setting up scale4a_branch2c
I0509 19:53:06.921294  4089 net.cpp:157] Top shape: 1 1024 38 63 (2451456)
I0509 19:53:06.921313  4089 net.cpp:165] Memory required for data: 2183246676
I0509 19:53:06.921331  4089 layer_factory.hpp:77] Creating layer res4a
I0509 19:53:06.921355  4089 net.cpp:100] Creating Layer res4a
I0509 19:53:06.921371  4089 net.cpp:444] res4a <- res4a_branch1
I0509 19:53:06.921387  4089 net.cpp:444] res4a <- res4a_branch2c
I0509 19:53:06.921404  4089 net.cpp:418] res4a -> res4a
I0509 19:53:06.921458  4089 net.cpp:150] Setting up res4a
I0509 19:53:06.921480  4089 net.cpp:157] Top shape: 1 1024 38 63 (2451456)
I0509 19:53:06.921494  4089 net.cpp:165] Memory required for data: 2193052500
I0509 19:53:06.921509  4089 layer_factory.hpp:77] Creating layer res4a_relu
I0509 19:53:06.921525  4089 net.cpp:100] Creating Layer res4a_relu
I0509 19:53:06.921540  4089 net.cpp:444] res4a_relu <- res4a
I0509 19:53:06.921556  4089 net.cpp:405] res4a_relu -> res4a (in-place)
I0509 19:53:06.921577  4089 net.cpp:150] Setting up res4a_relu
I0509 19:53:06.921593  4089 net.cpp:157] Top shape: 1 1024 38 63 (2451456)
I0509 19:53:06.921607  4089 net.cpp:165] Memory required for data: 2202858324
I0509 19:53:06.921620  4089 layer_factory.hpp:77] Creating layer res4a_res4a_relu_0_split
I0509 19:53:06.921638  4089 net.cpp:100] Creating Layer res4a_res4a_relu_0_split
I0509 19:53:06.921653  4089 net.cpp:444] res4a_res4a_relu_0_split <- res4a
I0509 19:53:06.921670  4089 net.cpp:418] res4a_res4a_relu_0_split -> res4a_res4a_relu_0_split_0
I0509 19:53:06.921690  4089 net.cpp:418] res4a_res4a_relu_0_split -> res4a_res4a_relu_0_split_1
I0509 19:53:06.921769  4089 net.cpp:150] Setting up res4a_res4a_relu_0_split
I0509 19:53:06.921793  4089 net.cpp:157] Top shape: 1 1024 38 63 (2451456)
I0509 19:53:06.921808  4089 net.cpp:157] Top shape: 1 1024 38 63 (2451456)
I0509 19:53:06.921821  4089 net.cpp:165] Memory required for data: 2222469972
I0509 19:53:06.921835  4089 layer_factory.hpp:77] Creating layer res4b1_branch2a
I0509 19:53:06.921854  4089 net.cpp:100] Creating Layer res4b1_branch2a
I0509 19:53:06.921870  4089 net.cpp:444] res4b1_branch2a <- res4a_res4a_relu_0_split_0
I0509 19:53:06.921891  4089 net.cpp:418] res4b1_branch2a -> res4b1_branch2a
I0509 19:53:06.922418  4089 net.cpp:150] Setting up res4b1_branch2a
I0509 19:53:06.922446  4089 net.cpp:157] Top shape: 1 256 38 63 (612864)
I0509 19:53:06.922461  4089 net.cpp:165] Memory required for data: 2224921428
I0509 19:53:06.922479  4089 layer_factory.hpp:77] Creating layer bn4b1_branch2a
I0509 19:53:06.922497  4089 net.cpp:100] Creating Layer bn4b1_branch2a
I0509 19:53:06.922514  4089 net.cpp:444] bn4b1_branch2a <- res4b1_branch2a
I0509 19:53:06.922533  4089 net.cpp:405] bn4b1_branch2a -> res4b1_branch2a (in-place)
I0509 19:53:06.922868  4089 net.cpp:150] Setting up bn4b1_branch2a
I0509 19:53:06.922893  4089 net.cpp:157] Top shape: 1 256 38 63 (612864)
I0509 19:53:06.922906  4089 net.cpp:165] Memory required for data: 2227372884
I0509 19:53:06.922926  4089 layer_factory.hpp:77] Creating layer scale4b1_branch2a
I0509 19:53:06.922950  4089 net.cpp:100] Creating Layer scale4b1_branch2a
I0509 19:53:06.922966  4089 net.cpp:444] scale4b1_branch2a <- res4b1_branch2a
I0509 19:53:06.922986  4089 net.cpp:405] scale4b1_branch2a -> res4b1_branch2a (in-place)
I0509 19:53:06.923069  4089 layer_factory.hpp:77] Creating layer scale4b1_branch2a
I0509 19:53:06.923295  4089 net.cpp:150] Setting up scale4b1_branch2a
I0509 19:53:06.923321  4089 net.cpp:157] Top shape: 1 256 38 63 (612864)
I0509 19:53:06.923336  4089 net.cpp:165] Memory required for data: 2229824340
I0509 19:53:06.923354  4089 layer_factory.hpp:77] Creating layer res4b1_branch2a_relu
I0509 19:53:06.923372  4089 net.cpp:100] Creating Layer res4b1_branch2a_relu
I0509 19:53:06.923393  4089 net.cpp:444] res4b1_branch2a_relu <- res4b1_branch2a
I0509 19:53:06.923413  4089 net.cpp:405] res4b1_branch2a_relu -> res4b1_branch2a (in-place)
I0509 19:53:06.923434  4089 net.cpp:150] Setting up res4b1_branch2a_relu
I0509 19:53:06.923450  4089 net.cpp:157] Top shape: 1 256 38 63 (612864)
I0509 19:53:06.923463  4089 net.cpp:165] Memory required for data: 2232275796
I0509 19:53:06.923481  4089 layer_factory.hpp:77] Creating layer res4b1_branch2b
I0509 19:53:06.923506  4089 net.cpp:100] Creating Layer res4b1_branch2b
I0509 19:53:06.923522  4089 net.cpp:444] res4b1_branch2b <- res4b1_branch2a
I0509 19:53:06.923542  4089 net.cpp:418] res4b1_branch2b -> res4b1_branch2b
I0509 19:53:06.925766  4089 net.cpp:150] Setting up res4b1_branch2b
I0509 19:53:06.925801  4089 net.cpp:157] Top shape: 1 256 38 63 (612864)
I0509 19:53:06.925817  4089 net.cpp:165] Memory required for data: 2234727252
I0509 19:53:06.925835  4089 layer_factory.hpp:77] Creating layer bn4b1_branch2b
I0509 19:53:06.925858  4089 net.cpp:100] Creating Layer bn4b1_branch2b
I0509 19:53:06.925874  4089 net.cpp:444] bn4b1_branch2b <- res4b1_branch2b
I0509 19:53:06.925895  4089 net.cpp:405] bn4b1_branch2b -> res4b1_branch2b (in-place)
I0509 19:53:06.926237  4089 net.cpp:150] Setting up bn4b1_branch2b
I0509 19:53:06.926264  4089 net.cpp:157] Top shape: 1 256 38 63 (612864)
I0509 19:53:06.926278  4089 net.cpp:165] Memory required for data: 2237178708
I0509 19:53:06.926302  4089 layer_factory.hpp:77] Creating layer scale4b1_branch2b
I0509 19:53:06.926324  4089 net.cpp:100] Creating Layer scale4b1_branch2b
I0509 19:53:06.926340  4089 net.cpp:444] scale4b1_branch2b <- res4b1_branch2b
I0509 19:53:06.926358  4089 net.cpp:405] scale4b1_branch2b -> res4b1_branch2b (in-place)
I0509 19:53:06.926443  4089 layer_factory.hpp:77] Creating layer scale4b1_branch2b
I0509 19:53:06.926651  4089 net.cpp:150] Setting up scale4b1_branch2b
I0509 19:53:06.926677  4089 net.cpp:157] Top shape: 1 256 38 63 (612864)
I0509 19:53:06.926692  4089 net.cpp:165] Memory required for data: 2239630164
I0509 19:53:06.926709  4089 layer_factory.hpp:77] Creating layer res4b1_branch2b_relu
I0509 19:53:06.926729  4089 net.cpp:100] Creating Layer res4b1_branch2b_relu
I0509 19:53:06.926745  4089 net.cpp:444] res4b1_branch2b_relu <- res4b1_branch2b
I0509 19:53:06.926765  4089 net.cpp:405] res4b1_branch2b_relu -> res4b1_branch2b (in-place)
I0509 19:53:06.926789  4089 net.cpp:150] Setting up res4b1_branch2b_relu
I0509 19:53:06.926808  4089 net.cpp:157] Top shape: 1 256 38 63 (612864)
I0509 19:53:06.926822  4089 net.cpp:165] Memory required for data: 2242081620
I0509 19:53:06.926837  4089 layer_factory.hpp:77] Creating layer res4b1_branch2c
I0509 19:53:06.926859  4089 net.cpp:100] Creating Layer res4b1_branch2c
I0509 19:53:06.926877  4089 net.cpp:444] res4b1_branch2c <- res4b1_branch2b
I0509 19:53:06.926895  4089 net.cpp:418] res4b1_branch2c -> res4b1_branch2c
I0509 19:53:06.928805  4089 net.cpp:150] Setting up res4b1_branch2c
I0509 19:53:06.928841  4089 net.cpp:157] Top shape: 1 1024 38 63 (2451456)
I0509 19:53:06.928858  4089 net.cpp:165] Memory required for data: 2251887444
I0509 19:53:06.928876  4089 layer_factory.hpp:77] Creating layer bn4b1_branch2c
I0509 19:53:06.928900  4089 net.cpp:100] Creating Layer bn4b1_branch2c
I0509 19:53:06.928920  4089 net.cpp:444] bn4b1_branch2c <- res4b1_branch2c
I0509 19:53:06.928942  4089 net.cpp:405] bn4b1_branch2c -> res4b1_branch2c (in-place)
I0509 19:53:06.929282  4089 net.cpp:150] Setting up bn4b1_branch2c
I0509 19:53:06.929312  4089 net.cpp:157] Top shape: 1 1024 38 63 (2451456)
I0509 19:53:06.929329  4089 net.cpp:165] Memory required for data: 2261693268
I0509 19:53:06.929349  4089 layer_factory.hpp:77] Creating layer scale4b1_branch2c
I0509 19:53:06.929373  4089 net.cpp:100] Creating Layer scale4b1_branch2c
I0509 19:53:06.929389  4089 net.cpp:444] scale4b1_branch2c <- res4b1_branch2c
I0509 19:53:06.929406  4089 net.cpp:405] scale4b1_branch2c -> res4b1_branch2c (in-place)
I0509 19:53:06.929486  4089 layer_factory.hpp:77] Creating layer scale4b1_branch2c
I0509 19:53:06.929720  4089 net.cpp:150] Setting up scale4b1_branch2c
I0509 19:53:06.929747  4089 net.cpp:157] Top shape: 1 1024 38 63 (2451456)
I0509 19:53:06.929762  4089 net.cpp:165] Memory required for data: 2271499092
I0509 19:53:06.929780  4089 layer_factory.hpp:77] Creating layer res4b1
I0509 19:53:06.929798  4089 net.cpp:100] Creating Layer res4b1
I0509 19:53:06.929813  4089 net.cpp:444] res4b1 <- res4a_res4a_relu_0_split_1
I0509 19:53:06.929829  4089 net.cpp:444] res4b1 <- res4b1_branch2c
I0509 19:53:06.929847  4089 net.cpp:418] res4b1 -> res4b1
I0509 19:53:06.929898  4089 net.cpp:150] Setting up res4b1
I0509 19:53:06.929920  4089 net.cpp:157] Top shape: 1 1024 38 63 (2451456)
I0509 19:53:06.929934  4089 net.cpp:165] Memory required for data: 2281304916
I0509 19:53:06.929947  4089 layer_factory.hpp:77] Creating layer res4b1_relu
I0509 19:53:06.929963  4089 net.cpp:100] Creating Layer res4b1_relu
I0509 19:53:06.929977  4089 net.cpp:444] res4b1_relu <- res4b1
I0509 19:53:06.929992  4089 net.cpp:405] res4b1_relu -> res4b1 (in-place)
I0509 19:53:06.930011  4089 net.cpp:150] Setting up res4b1_relu
I0509 19:53:06.930027  4089 net.cpp:157] Top shape: 1 1024 38 63 (2451456)
I0509 19:53:06.930043  4089 net.cpp:165] Memory required for data: 2291110740
I0509 19:53:06.930058  4089 layer_factory.hpp:77] Creating layer res4b1_res4b1_relu_0_split
I0509 19:53:06.930075  4089 net.cpp:100] Creating Layer res4b1_res4b1_relu_0_split
I0509 19:53:06.930090  4089 net.cpp:444] res4b1_res4b1_relu_0_split <- res4b1
I0509 19:53:06.930107  4089 net.cpp:418] res4b1_res4b1_relu_0_split -> res4b1_res4b1_relu_0_split_0
I0509 19:53:06.930126  4089 net.cpp:418] res4b1_res4b1_relu_0_split -> res4b1_res4b1_relu_0_split_1
I0509 19:53:06.930207  4089 net.cpp:150] Setting up res4b1_res4b1_relu_0_split
I0509 19:53:06.930227  4089 net.cpp:157] Top shape: 1 1024 38 63 (2451456)
I0509 19:53:06.930243  4089 net.cpp:157] Top shape: 1 1024 38 63 (2451456)
I0509 19:53:06.930254  4089 net.cpp:165] Memory required for data: 2310722388
I0509 19:53:06.930269  4089 layer_factory.hpp:77] Creating layer res4b2_branch2a
I0509 19:53:06.930286  4089 net.cpp:100] Creating Layer res4b2_branch2a
I0509 19:53:06.930301  4089 net.cpp:444] res4b2_branch2a <- res4b1_res4b1_relu_0_split_0
I0509 19:53:06.930320  4089 net.cpp:418] res4b2_branch2a -> res4b2_branch2a
I0509 19:53:06.930822  4089 net.cpp:150] Setting up res4b2_branch2a
I0509 19:53:06.930846  4089 net.cpp:157] Top shape: 1 256 38 63 (612864)
I0509 19:53:06.930860  4089 net.cpp:165] Memory required for data: 2313173844
I0509 19:53:06.930876  4089 layer_factory.hpp:77] Creating layer bn4b2_branch2a
I0509 19:53:06.930896  4089 net.cpp:100] Creating Layer bn4b2_branch2a
I0509 19:53:06.930912  4089 net.cpp:444] bn4b2_branch2a <- res4b2_branch2a
I0509 19:53:06.930930  4089 net.cpp:405] bn4b2_branch2a -> res4b2_branch2a (in-place)
I0509 19:53:06.931277  4089 net.cpp:150] Setting up bn4b2_branch2a
I0509 19:53:06.931304  4089 net.cpp:157] Top shape: 1 256 38 63 (612864)
I0509 19:53:06.931319  4089 net.cpp:165] Memory required for data: 2315625300
I0509 19:53:06.931341  4089 layer_factory.hpp:77] Creating layer scale4b2_branch2a
I0509 19:53:06.931360  4089 net.cpp:100] Creating Layer scale4b2_branch2a
I0509 19:53:06.931375  4089 net.cpp:444] scale4b2_branch2a <- res4b2_branch2a
I0509 19:53:06.931396  4089 net.cpp:405] scale4b2_branch2a -> res4b2_branch2a (in-place)
I0509 19:53:06.931475  4089 layer_factory.hpp:77] Creating layer scale4b2_branch2a
I0509 19:53:06.931704  4089 net.cpp:150] Setting up scale4b2_branch2a
I0509 19:53:06.931730  4089 net.cpp:157] Top shape: 1 256 38 63 (612864)
I0509 19:53:06.931744  4089 net.cpp:165] Memory required for data: 2318076756
I0509 19:53:06.931762  4089 layer_factory.hpp:77] Creating layer res4b2_branch2a_relu
I0509 19:53:06.931778  4089 net.cpp:100] Creating Layer res4b2_branch2a_relu
I0509 19:53:06.931793  4089 net.cpp:444] res4b2_branch2a_relu <- res4b2_branch2a
I0509 19:53:06.931809  4089 net.cpp:405] res4b2_branch2a_relu -> res4b2_branch2a (in-place)
I0509 19:53:06.931833  4089 net.cpp:150] Setting up res4b2_branch2a_relu
I0509 19:53:06.931849  4089 net.cpp:157] Top shape: 1 256 38 63 (612864)
I0509 19:53:06.931862  4089 net.cpp:165] Memory required for data: 2320528212
I0509 19:53:06.931876  4089 layer_factory.hpp:77] Creating layer res4b2_branch2b
I0509 19:53:06.931897  4089 net.cpp:100] Creating Layer res4b2_branch2b
I0509 19:53:06.931915  4089 net.cpp:444] res4b2_branch2b <- res4b2_branch2a
I0509 19:53:06.931933  4089 net.cpp:418] res4b2_branch2b -> res4b2_branch2b
I0509 19:53:06.934185  4089 net.cpp:150] Setting up res4b2_branch2b
I0509 19:53:06.934221  4089 net.cpp:157] Top shape: 1 256 38 63 (612864)
I0509 19:53:06.934237  4089 net.cpp:165] Memory required for data: 2322979668
I0509 19:53:06.934258  4089 layer_factory.hpp:77] Creating layer bn4b2_branch2b
I0509 19:53:06.934283  4089 net.cpp:100] Creating Layer bn4b2_branch2b
I0509 19:53:06.934300  4089 net.cpp:444] bn4b2_branch2b <- res4b2_branch2b
I0509 19:53:06.934319  4089 net.cpp:405] bn4b2_branch2b -> res4b2_branch2b (in-place)
I0509 19:53:06.934676  4089 net.cpp:150] Setting up bn4b2_branch2b
I0509 19:53:06.934705  4089 net.cpp:157] Top shape: 1 256 38 63 (612864)
I0509 19:53:06.934721  4089 net.cpp:165] Memory required for data: 2325431124
I0509 19:53:06.934741  4089 layer_factory.hpp:77] Creating layer scale4b2_branch2b
I0509 19:53:06.934759  4089 net.cpp:100] Creating Layer scale4b2_branch2b
I0509 19:53:06.934774  4089 net.cpp:444] scale4b2_branch2b <- res4b2_branch2b
I0509 19:53:06.934792  4089 net.cpp:405] scale4b2_branch2b -> res4b2_branch2b (in-place)
I0509 19:53:06.934875  4089 layer_factory.hpp:77] Creating layer scale4b2_branch2b
I0509 19:53:06.935107  4089 net.cpp:150] Setting up scale4b2_branch2b
I0509 19:53:06.935135  4089 net.cpp:157] Top shape: 1 256 38 63 (612864)
I0509 19:53:06.935150  4089 net.cpp:165] Memory required for data: 2327882580
I0509 19:53:06.935168  4089 layer_factory.hpp:77] Creating layer res4b2_branch2b_relu
I0509 19:53:06.935189  4089 net.cpp:100] Creating Layer res4b2_branch2b_relu
I0509 19:53:06.935205  4089 net.cpp:444] res4b2_branch2b_relu <- res4b2_branch2b
I0509 19:53:06.935222  4089 net.cpp:405] res4b2_branch2b_relu -> res4b2_branch2b (in-place)
I0509 19:53:06.935240  4089 net.cpp:150] Setting up res4b2_branch2b_relu
I0509 19:53:06.935256  4089 net.cpp:157] Top shape: 1 256 38 63 (612864)
I0509 19:53:06.935271  4089 net.cpp:165] Memory required for data: 2330334036
I0509 19:53:06.935284  4089 layer_factory.hpp:77] Creating layer res4b2_branch2c
I0509 19:53:06.935307  4089 net.cpp:100] Creating Layer res4b2_branch2c
I0509 19:53:06.935322  4089 net.cpp:444] res4b2_branch2c <- res4b2_branch2b
I0509 19:53:06.935339  4089 net.cpp:418] res4b2_branch2c -> res4b2_branch2c
I0509 19:53:06.937283  4089 net.cpp:150] Setting up res4b2_branch2c
I0509 19:53:06.937317  4089 net.cpp:157] Top shape: 1 1024 38 63 (2451456)
I0509 19:53:06.937335  4089 net.cpp:165] Memory required for data: 2340139860
I0509 19:53:06.937351  4089 layer_factory.hpp:77] Creating layer bn4b2_branch2c
I0509 19:53:06.937373  4089 net.cpp:100] Creating Layer bn4b2_branch2c
I0509 19:53:06.937391  4089 net.cpp:444] bn4b2_branch2c <- res4b2_branch2c
I0509 19:53:06.937413  4089 net.cpp:405] bn4b2_branch2c -> res4b2_branch2c (in-place)
I0509 19:53:06.937773  4089 net.cpp:150] Setting up bn4b2_branch2c
I0509 19:53:06.937803  4089 net.cpp:157] Top shape: 1 1024 38 63 (2451456)
I0509 19:53:06.937819  4089 net.cpp:165] Memory required for data: 2349945684
I0509 19:53:06.937839  4089 layer_factory.hpp:77] Creating layer scale4b2_branch2c
I0509 19:53:06.937860  4089 net.cpp:100] Creating Layer scale4b2_branch2c
I0509 19:53:06.937875  4089 net.cpp:444] scale4b2_branch2c <- res4b2_branch2c
I0509 19:53:06.937892  4089 net.cpp:405] scale4b2_branch2c -> res4b2_branch2c (in-place)
I0509 19:53:06.937969  4089 layer_factory.hpp:77] Creating layer scale4b2_branch2c
I0509 19:53:06.938204  4089 net.cpp:150] Setting up scale4b2_branch2c
I0509 19:53:06.938227  4089 net.cpp:157] Top shape: 1 1024 38 63 (2451456)
I0509 19:53:06.938241  4089 net.cpp:165] Memory required for data: 2359751508
I0509 19:53:06.938264  4089 layer_factory.hpp:77] Creating layer res4b2
I0509 19:53:06.938282  4089 net.cpp:100] Creating Layer res4b2
I0509 19:53:06.938297  4089 net.cpp:444] res4b2 <- res4b1_res4b1_relu_0_split_1
I0509 19:53:06.938313  4089 net.cpp:444] res4b2 <- res4b2_branch2c
I0509 19:53:06.938330  4089 net.cpp:418] res4b2 -> res4b2
I0509 19:53:06.938383  4089 net.cpp:150] Setting up res4b2
I0509 19:53:06.938405  4089 net.cpp:157] Top shape: 1 1024 38 63 (2451456)
I0509 19:53:06.938418  4089 net.cpp:165] Memory required for data: 2369557332
I0509 19:53:06.938432  4089 layer_factory.hpp:77] Creating layer res4b2_relu
I0509 19:53:06.938450  4089 net.cpp:100] Creating Layer res4b2_relu
I0509 19:53:06.938465  4089 net.cpp:444] res4b2_relu <- res4b2
I0509 19:53:06.938480  4089 net.cpp:405] res4b2_relu -> res4b2 (in-place)
I0509 19:53:06.938498  4089 net.cpp:150] Setting up res4b2_relu
I0509 19:53:06.938515  4089 net.cpp:157] Top shape: 1 1024 38 63 (2451456)
I0509 19:53:06.938530  4089 net.cpp:165] Memory required for data: 2379363156
I0509 19:53:06.938544  4089 layer_factory.hpp:77] Creating layer res4b2_res4b2_relu_0_split
I0509 19:53:06.938562  4089 net.cpp:100] Creating Layer res4b2_res4b2_relu_0_split
I0509 19:53:06.938581  4089 net.cpp:444] res4b2_res4b2_relu_0_split <- res4b2
I0509 19:53:06.938599  4089 net.cpp:418] res4b2_res4b2_relu_0_split -> res4b2_res4b2_relu_0_split_0
I0509 19:53:06.938619  4089 net.cpp:418] res4b2_res4b2_relu_0_split -> res4b2_res4b2_relu_0_split_1
I0509 19:53:06.938699  4089 net.cpp:150] Setting up res4b2_res4b2_relu_0_split
I0509 19:53:06.938720  4089 net.cpp:157] Top shape: 1 1024 38 63 (2451456)
I0509 19:53:06.938742  4089 net.cpp:157] Top shape: 1 1024 38 63 (2451456)
I0509 19:53:06.938755  4089 net.cpp:165] Memory required for data: 2398974804
I0509 19:53:06.938768  4089 layer_factory.hpp:77] Creating layer res4b3_branch2a
I0509 19:53:06.938788  4089 net.cpp:100] Creating Layer res4b3_branch2a
I0509 19:53:06.938804  4089 net.cpp:444] res4b3_branch2a <- res4b2_res4b2_relu_0_split_0
I0509 19:53:06.938824  4089 net.cpp:418] res4b3_branch2a -> res4b3_branch2a
I0509 19:53:06.939335  4089 net.cpp:150] Setting up res4b3_branch2a
I0509 19:53:06.939359  4089 net.cpp:157] Top shape: 1 256 38 63 (612864)
I0509 19:53:06.939373  4089 net.cpp:165] Memory required for data: 2401426260
I0509 19:53:06.939389  4089 layer_factory.hpp:77] Creating layer bn4b3_branch2a
I0509 19:53:06.939409  4089 net.cpp:100] Creating Layer bn4b3_branch2a
I0509 19:53:06.939424  4089 net.cpp:444] bn4b3_branch2a <- res4b3_branch2a
I0509 19:53:06.939445  4089 net.cpp:405] bn4b3_branch2a -> res4b3_branch2a (in-place)
I0509 19:53:06.939800  4089 net.cpp:150] Setting up bn4b3_branch2a
I0509 19:53:06.939828  4089 net.cpp:157] Top shape: 1 256 38 63 (612864)
I0509 19:53:06.939842  4089 net.cpp:165] Memory required for data: 2403877716
I0509 19:53:06.939862  4089 layer_factory.hpp:77] Creating layer scale4b3_branch2a
I0509 19:53:06.939883  4089 net.cpp:100] Creating Layer scale4b3_branch2a
I0509 19:53:06.939899  4089 net.cpp:444] scale4b3_branch2a <- res4b3_branch2a
I0509 19:53:06.939915  4089 net.cpp:405] scale4b3_branch2a -> res4b3_branch2a (in-place)
I0509 19:53:06.939996  4089 layer_factory.hpp:77] Creating layer scale4b3_branch2a
I0509 19:53:06.940219  4089 net.cpp:150] Setting up scale4b3_branch2a
I0509 19:53:06.940246  4089 net.cpp:157] Top shape: 1 256 38 63 (612864)
I0509 19:53:06.940263  4089 net.cpp:165] Memory required for data: 2406329172
I0509 19:53:06.940279  4089 layer_factory.hpp:77] Creating layer res4b3_branch2a_relu
I0509 19:53:06.940299  4089 net.cpp:100] Creating Layer res4b3_branch2a_relu
I0509 19:53:06.940315  4089 net.cpp:444] res4b3_branch2a_relu <- res4b3_branch2a
I0509 19:53:06.940330  4089 net.cpp:405] res4b3_branch2a_relu -> res4b3_branch2a (in-place)
I0509 19:53:06.940348  4089 net.cpp:150] Setting up res4b3_branch2a_relu
I0509 19:53:06.940363  4089 net.cpp:157] Top shape: 1 256 38 63 (612864)
I0509 19:53:06.940377  4089 net.cpp:165] Memory required for data: 2408780628
I0509 19:53:06.940398  4089 layer_factory.hpp:77] Creating layer res4b3_branch2b
I0509 19:53:06.940421  4089 net.cpp:100] Creating Layer res4b3_branch2b
I0509 19:53:06.940436  4089 net.cpp:444] res4b3_branch2b <- res4b3_branch2a
I0509 19:53:06.940457  4089 net.cpp:418] res4b3_branch2b -> res4b3_branch2b
I0509 19:53:06.942672  4089 net.cpp:150] Setting up res4b3_branch2b
I0509 19:53:06.942706  4089 net.cpp:157] Top shape: 1 256 38 63 (612864)
I0509 19:53:06.942723  4089 net.cpp:165] Memory required for data: 2411232084
I0509 19:53:06.942739  4089 layer_factory.hpp:77] Creating layer bn4b3_branch2b
I0509 19:53:06.942760  4089 net.cpp:100] Creating Layer bn4b3_branch2b
I0509 19:53:06.942778  4089 net.cpp:444] bn4b3_branch2b <- res4b3_branch2b
I0509 19:53:06.942797  4089 net.cpp:405] bn4b3_branch2b -> res4b3_branch2b (in-place)
I0509 19:53:06.943151  4089 net.cpp:150] Setting up bn4b3_branch2b
I0509 19:53:06.943178  4089 net.cpp:157] Top shape: 1 256 38 63 (612864)
I0509 19:53:06.943193  4089 net.cpp:165] Memory required for data: 2413683540
I0509 19:53:06.943213  4089 layer_factory.hpp:77] Creating layer scale4b3_branch2b
I0509 19:53:06.943236  4089 net.cpp:100] Creating Layer scale4b3_branch2b
I0509 19:53:06.943253  4089 net.cpp:444] scale4b3_branch2b <- res4b3_branch2b
I0509 19:53:06.943271  4089 net.cpp:405] scale4b3_branch2b -> res4b3_branch2b (in-place)
I0509 19:53:06.943358  4089 layer_factory.hpp:77] Creating layer scale4b3_branch2b
I0509 19:53:06.943591  4089 net.cpp:150] Setting up scale4b3_branch2b
I0509 19:53:06.943621  4089 net.cpp:157] Top shape: 1 256 38 63 (612864)
I0509 19:53:06.943636  4089 net.cpp:165] Memory required for data: 2416134996
I0509 19:53:06.943655  4089 layer_factory.hpp:77] Creating layer res4b3_branch2b_relu
I0509 19:53:06.943673  4089 net.cpp:100] Creating Layer res4b3_branch2b_relu
I0509 19:53:06.943688  4089 net.cpp:444] res4b3_branch2b_relu <- res4b3_branch2b
I0509 19:53:06.943703  4089 net.cpp:405] res4b3_branch2b_relu -> res4b3_branch2b (in-place)
I0509 19:53:06.943724  4089 net.cpp:150] Setting up res4b3_branch2b_relu
I0509 19:53:06.943742  4089 net.cpp:157] Top shape: 1 256 38 63 (612864)
I0509 19:53:06.943756  4089 net.cpp:165] Memory required for data: 2418586452
I0509 19:53:06.943769  4089 layer_factory.hpp:77] Creating layer res4b3_branch2c
I0509 19:53:06.943787  4089 net.cpp:100] Creating Layer res4b3_branch2c
I0509 19:53:06.943806  4089 net.cpp:444] res4b3_branch2c <- res4b3_branch2b
I0509 19:53:06.943828  4089 net.cpp:418] res4b3_branch2c -> res4b3_branch2c
I0509 19:53:06.945722  4089 net.cpp:150] Setting up res4b3_branch2c
I0509 19:53:06.945755  4089 net.cpp:157] Top shape: 1 1024 38 63 (2451456)
I0509 19:53:06.945773  4089 net.cpp:165] Memory required for data: 2428392276
I0509 19:53:06.945792  4089 layer_factory.hpp:77] Creating layer bn4b3_branch2c
I0509 19:53:06.945817  4089 net.cpp:100] Creating Layer bn4b3_branch2c
I0509 19:53:06.945832  4089 net.cpp:444] bn4b3_branch2c <- res4b3_branch2c
I0509 19:53:06.945850  4089 net.cpp:405] bn4b3_branch2c -> res4b3_branch2c (in-place)
I0509 19:53:06.946203  4089 net.cpp:150] Setting up bn4b3_branch2c
I0509 19:53:06.946231  4089 net.cpp:157] Top shape: 1 1024 38 63 (2451456)
I0509 19:53:06.946249  4089 net.cpp:165] Memory required for data: 2438198100
I0509 19:53:06.946269  4089 layer_factory.hpp:77] Creating layer scale4b3_branch2c
I0509 19:53:06.946287  4089 net.cpp:100] Creating Layer scale4b3_branch2c
I0509 19:53:06.946303  4089 net.cpp:444] scale4b3_branch2c <- res4b3_branch2c
I0509 19:53:06.946321  4089 net.cpp:405] scale4b3_branch2c -> res4b3_branch2c (in-place)
I0509 19:53:06.946403  4089 layer_factory.hpp:77] Creating layer scale4b3_branch2c
I0509 19:53:06.946643  4089 net.cpp:150] Setting up scale4b3_branch2c
I0509 19:53:06.946672  4089 net.cpp:157] Top shape: 1 1024 38 63 (2451456)
I0509 19:53:06.946688  4089 net.cpp:165] Memory required for data: 2448003924
I0509 19:53:06.946707  4089 layer_factory.hpp:77] Creating layer res4b3
I0509 19:53:06.946727  4089 net.cpp:100] Creating Layer res4b3
I0509 19:53:06.946748  4089 net.cpp:444] res4b3 <- res4b2_res4b2_relu_0_split_1
I0509 19:53:06.946764  4089 net.cpp:444] res4b3 <- res4b3_branch2c
I0509 19:53:06.946780  4089 net.cpp:418] res4b3 -> res4b3
I0509 19:53:06.946837  4089 net.cpp:150] Setting up res4b3
I0509 19:53:06.946859  4089 net.cpp:157] Top shape: 1 1024 38 63 (2451456)
I0509 19:53:06.946873  4089 net.cpp:165] Memory required for data: 2457809748
I0509 19:53:06.946887  4089 layer_factory.hpp:77] Creating layer res4b3_relu
I0509 19:53:06.946904  4089 net.cpp:100] Creating Layer res4b3_relu
I0509 19:53:06.946919  4089 net.cpp:444] res4b3_relu <- res4b3
I0509 19:53:06.946935  4089 net.cpp:405] res4b3_relu -> res4b3 (in-place)
I0509 19:53:06.946954  4089 net.cpp:150] Setting up res4b3_relu
I0509 19:53:06.946972  4089 net.cpp:157] Top shape: 1 1024 38 63 (2451456)
I0509 19:53:06.946985  4089 net.cpp:165] Memory required for data: 2467615572
I0509 19:53:06.947000  4089 layer_factory.hpp:77] Creating layer res4b3_res4b3_relu_0_split
I0509 19:53:06.947017  4089 net.cpp:100] Creating Layer res4b3_res4b3_relu_0_split
I0509 19:53:06.947034  4089 net.cpp:444] res4b3_res4b3_relu_0_split <- res4b3
I0509 19:53:06.947052  4089 net.cpp:418] res4b3_res4b3_relu_0_split -> res4b3_res4b3_relu_0_split_0
I0509 19:53:06.947072  4089 net.cpp:418] res4b3_res4b3_relu_0_split -> res4b3_res4b3_relu_0_split_1
I0509 19:53:06.947154  4089 net.cpp:150] Setting up res4b3_res4b3_relu_0_split
I0509 19:53:06.947175  4089 net.cpp:157] Top shape: 1 1024 38 63 (2451456)
I0509 19:53:06.947191  4089 net.cpp:157] Top shape: 1 1024 38 63 (2451456)
I0509 19:53:06.947206  4089 net.cpp:165] Memory required for data: 2487227220
I0509 19:53:06.947218  4089 layer_factory.hpp:77] Creating layer res4b4_branch2a
I0509 19:53:06.947238  4089 net.cpp:100] Creating Layer res4b4_branch2a
I0509 19:53:06.947253  4089 net.cpp:444] res4b4_branch2a <- res4b3_res4b3_relu_0_split_0
I0509 19:53:06.947271  4089 net.cpp:418] res4b4_branch2a -> res4b4_branch2a
I0509 19:53:06.947824  4089 net.cpp:150] Setting up res4b4_branch2a
I0509 19:53:06.947855  4089 net.cpp:157] Top shape: 1 256 38 63 (612864)
I0509 19:53:06.947873  4089 net.cpp:165] Memory required for data: 2489678676
I0509 19:53:06.947892  4089 layer_factory.hpp:77] Creating layer bn4b4_branch2a
I0509 19:53:06.947912  4089 net.cpp:100] Creating Layer bn4b4_branch2a
I0509 19:53:06.947928  4089 net.cpp:444] bn4b4_branch2a <- res4b4_branch2a
I0509 19:53:06.947949  4089 net.cpp:405] bn4b4_branch2a -> res4b4_branch2a (in-place)
I0509 19:53:06.948318  4089 net.cpp:150] Setting up bn4b4_branch2a
I0509 19:53:06.948344  4089 net.cpp:157] Top shape: 1 256 38 63 (612864)
I0509 19:53:06.948360  4089 net.cpp:165] Memory required for data: 2492130132
I0509 19:53:06.948380  4089 layer_factory.hpp:77] Creating layer scale4b4_branch2a
I0509 19:53:06.948401  4089 net.cpp:100] Creating Layer scale4b4_branch2a
I0509 19:53:06.948418  4089 net.cpp:444] scale4b4_branch2a <- res4b4_branch2a
I0509 19:53:06.948438  4089 net.cpp:405] scale4b4_branch2a -> res4b4_branch2a (in-place)
I0509 19:53:06.948524  4089 layer_factory.hpp:77] Creating layer scale4b4_branch2a
I0509 19:53:06.948755  4089 net.cpp:150] Setting up scale4b4_branch2a
I0509 19:53:06.948782  4089 net.cpp:157] Top shape: 1 256 38 63 (612864)
I0509 19:53:06.948797  4089 net.cpp:165] Memory required for data: 2494581588
I0509 19:53:06.948814  4089 layer_factory.hpp:77] Creating layer res4b4_branch2a_relu
I0509 19:53:06.948832  4089 net.cpp:100] Creating Layer res4b4_branch2a_relu
I0509 19:53:06.948848  4089 net.cpp:444] res4b4_branch2a_relu <- res4b4_branch2a
I0509 19:53:06.948865  4089 net.cpp:405] res4b4_branch2a_relu -> res4b4_branch2a (in-place)
I0509 19:53:06.948886  4089 net.cpp:150] Setting up res4b4_branch2a_relu
I0509 19:53:06.948905  4089 net.cpp:157] Top shape: 1 256 38 63 (612864)
I0509 19:53:06.948920  4089 net.cpp:165] Memory required for data: 2497033044
I0509 19:53:06.948935  4089 layer_factory.hpp:77] Creating layer res4b4_branch2b
I0509 19:53:06.948954  4089 net.cpp:100] Creating Layer res4b4_branch2b
I0509 19:53:06.948976  4089 net.cpp:444] res4b4_branch2b <- res4b4_branch2a
I0509 19:53:06.948997  4089 net.cpp:418] res4b4_branch2b -> res4b4_branch2b
I0509 19:53:06.951289  4089 net.cpp:150] Setting up res4b4_branch2b
I0509 19:53:06.951324  4089 net.cpp:157] Top shape: 1 256 38 63 (612864)
I0509 19:53:06.951340  4089 net.cpp:165] Memory required for data: 2499484500
I0509 19:53:06.951357  4089 layer_factory.hpp:77] Creating layer bn4b4_branch2b
I0509 19:53:06.951375  4089 net.cpp:100] Creating Layer bn4b4_branch2b
I0509 19:53:06.951392  4089 net.cpp:444] bn4b4_branch2b <- res4b4_branch2b
I0509 19:53:06.951411  4089 net.cpp:405] bn4b4_branch2b -> res4b4_branch2b (in-place)
I0509 19:53:06.951783  4089 net.cpp:150] Setting up bn4b4_branch2b
I0509 19:53:06.951812  4089 net.cpp:157] Top shape: 1 256 38 63 (612864)
I0509 19:53:06.951829  4089 net.cpp:165] Memory required for data: 2501935956
I0509 19:53:06.951850  4089 layer_factory.hpp:77] Creating layer scale4b4_branch2b
I0509 19:53:06.951874  4089 net.cpp:100] Creating Layer scale4b4_branch2b
I0509 19:53:06.951889  4089 net.cpp:444] scale4b4_branch2b <- res4b4_branch2b
I0509 19:53:06.951905  4089 net.cpp:405] scale4b4_branch2b -> res4b4_branch2b (in-place)
I0509 19:53:06.951997  4089 layer_factory.hpp:77] Creating layer scale4b4_branch2b
I0509 19:53:06.952220  4089 net.cpp:150] Setting up scale4b4_branch2b
I0509 19:53:06.952247  4089 net.cpp:157] Top shape: 1 256 38 63 (612864)
I0509 19:53:06.952261  4089 net.cpp:165] Memory required for data: 2504387412
I0509 19:53:06.952280  4089 layer_factory.hpp:77] Creating layer res4b4_branch2b_relu
I0509 19:53:06.952298  4089 net.cpp:100] Creating Layer res4b4_branch2b_relu
I0509 19:53:06.952313  4089 net.cpp:444] res4b4_branch2b_relu <- res4b4_branch2b
I0509 19:53:06.952332  4089 net.cpp:405] res4b4_branch2b_relu -> res4b4_branch2b (in-place)
I0509 19:53:06.952350  4089 net.cpp:150] Setting up res4b4_branch2b_relu
I0509 19:53:06.952368  4089 net.cpp:157] Top shape: 1 256 38 63 (612864)
I0509 19:53:06.952380  4089 net.cpp:165] Memory required for data: 2506838868
I0509 19:53:06.952394  4089 layer_factory.hpp:77] Creating layer res4b4_branch2c
I0509 19:53:06.952414  4089 net.cpp:100] Creating Layer res4b4_branch2c
I0509 19:53:06.952428  4089 net.cpp:444] res4b4_branch2c <- res4b4_branch2b
I0509 19:53:06.952445  4089 net.cpp:418] res4b4_branch2c -> res4b4_branch2c
I0509 19:53:06.954362  4089 net.cpp:150] Setting up res4b4_branch2c
I0509 19:53:06.954396  4089 net.cpp:157] Top shape: 1 1024 38 63 (2451456)
I0509 19:53:06.954413  4089 net.cpp:165] Memory required for data: 2516644692
I0509 19:53:06.954430  4089 layer_factory.hpp:77] Creating layer bn4b4_branch2c
I0509 19:53:06.954453  4089 net.cpp:100] Creating Layer bn4b4_branch2c
I0509 19:53:06.954469  4089 net.cpp:444] bn4b4_branch2c <- res4b4_branch2c
I0509 19:53:06.954489  4089 net.cpp:405] bn4b4_branch2c -> res4b4_branch2c (in-place)
I0509 19:53:06.954854  4089 net.cpp:150] Setting up bn4b4_branch2c
I0509 19:53:06.954881  4089 net.cpp:157] Top shape: 1 1024 38 63 (2451456)
I0509 19:53:06.954898  4089 net.cpp:165] Memory required for data: 2526450516
I0509 19:53:06.954921  4089 layer_factory.hpp:77] Creating layer scale4b4_branch2c
I0509 19:53:06.954943  4089 net.cpp:100] Creating Layer scale4b4_branch2c
I0509 19:53:06.954959  4089 net.cpp:444] scale4b4_branch2c <- res4b4_branch2c
I0509 19:53:06.954975  4089 net.cpp:405] scale4b4_branch2c -> res4b4_branch2c (in-place)
I0509 19:53:06.955057  4089 layer_factory.hpp:77] Creating layer scale4b4_branch2c
I0509 19:53:06.955289  4089 net.cpp:150] Setting up scale4b4_branch2c
I0509 19:53:06.955315  4089 net.cpp:157] Top shape: 1 1024 38 63 (2451456)
I0509 19:53:06.955330  4089 net.cpp:165] Memory required for data: 2536256340
I0509 19:53:06.955348  4089 layer_factory.hpp:77] Creating layer res4b4
I0509 19:53:06.955368  4089 net.cpp:100] Creating Layer res4b4
I0509 19:53:06.955384  4089 net.cpp:444] res4b4 <- res4b3_res4b3_relu_0_split_1
I0509 19:53:06.955399  4089 net.cpp:444] res4b4 <- res4b4_branch2c
I0509 19:53:06.955416  4089 net.cpp:418] res4b4 -> res4b4
I0509 19:53:06.955476  4089 net.cpp:150] Setting up res4b4
I0509 19:53:06.955504  4089 net.cpp:157] Top shape: 1 1024 38 63 (2451456)
I0509 19:53:06.955519  4089 net.cpp:165] Memory required for data: 2546062164
I0509 19:53:06.955533  4089 layer_factory.hpp:77] Creating layer res4b4_relu
I0509 19:53:06.955549  4089 net.cpp:100] Creating Layer res4b4_relu
I0509 19:53:06.955564  4089 net.cpp:444] res4b4_relu <- res4b4
I0509 19:53:06.955581  4089 net.cpp:405] res4b4_relu -> res4b4 (in-place)
I0509 19:53:06.955600  4089 net.cpp:150] Setting up res4b4_relu
I0509 19:53:06.955617  4089 net.cpp:157] Top shape: 1 1024 38 63 (2451456)
I0509 19:53:06.955632  4089 net.cpp:165] Memory required for data: 2555867988
I0509 19:53:06.955646  4089 layer_factory.hpp:77] Creating layer res4b4_res4b4_relu_0_split
I0509 19:53:06.955662  4089 net.cpp:100] Creating Layer res4b4_res4b4_relu_0_split
I0509 19:53:06.955675  4089 net.cpp:444] res4b4_res4b4_relu_0_split <- res4b4
I0509 19:53:06.955691  4089 net.cpp:418] res4b4_res4b4_relu_0_split -> res4b4_res4b4_relu_0_split_0
I0509 19:53:06.955709  4089 net.cpp:418] res4b4_res4b4_relu_0_split -> res4b4_res4b4_relu_0_split_1
I0509 19:53:06.955790  4089 net.cpp:150] Setting up res4b4_res4b4_relu_0_split
I0509 19:53:06.955813  4089 net.cpp:157] Top shape: 1 1024 38 63 (2451456)
I0509 19:53:06.955828  4089 net.cpp:157] Top shape: 1 1024 38 63 (2451456)
I0509 19:53:06.955842  4089 net.cpp:165] Memory required for data: 2575479636
I0509 19:53:06.955857  4089 layer_factory.hpp:77] Creating layer res4b5_branch2a
I0509 19:53:06.955875  4089 net.cpp:100] Creating Layer res4b5_branch2a
I0509 19:53:06.955891  4089 net.cpp:444] res4b5_branch2a <- res4b4_res4b4_relu_0_split_0
I0509 19:53:06.955910  4089 net.cpp:418] res4b5_branch2a -> res4b5_branch2a
I0509 19:53:06.956439  4089 net.cpp:150] Setting up res4b5_branch2a
I0509 19:53:06.956466  4089 net.cpp:157] Top shape: 1 256 38 63 (612864)
I0509 19:53:06.956481  4089 net.cpp:165] Memory required for data: 2577931092
I0509 19:53:06.956497  4089 layer_factory.hpp:77] Creating layer bn4b5_branch2a
I0509 19:53:06.956517  4089 net.cpp:100] Creating Layer bn4b5_branch2a
I0509 19:53:06.956533  4089 net.cpp:444] bn4b5_branch2a <- res4b5_branch2a
I0509 19:53:06.956549  4089 net.cpp:405] bn4b5_branch2a -> res4b5_branch2a (in-place)
I0509 19:53:06.956918  4089 net.cpp:150] Setting up bn4b5_branch2a
I0509 19:53:06.956945  4089 net.cpp:157] Top shape: 1 256 38 63 (612864)
I0509 19:53:06.956960  4089 net.cpp:165] Memory required for data: 2580382548
I0509 19:53:06.956982  4089 layer_factory.hpp:77] Creating layer scale4b5_branch2a
I0509 19:53:06.957001  4089 net.cpp:100] Creating Layer scale4b5_branch2a
I0509 19:53:06.957017  4089 net.cpp:444] scale4b5_branch2a <- res4b5_branch2a
I0509 19:53:06.957036  4089 net.cpp:405] scale4b5_branch2a -> res4b5_branch2a (in-place)
I0509 19:53:06.957118  4089 layer_factory.hpp:77] Creating layer scale4b5_branch2a
I0509 19:53:06.957345  4089 net.cpp:150] Setting up scale4b5_branch2a
I0509 19:53:06.957372  4089 net.cpp:157] Top shape: 1 256 38 63 (612864)
I0509 19:53:06.957388  4089 net.cpp:165] Memory required for data: 2582834004
I0509 19:53:06.957406  4089 layer_factory.hpp:77] Creating layer res4b5_branch2a_relu
I0509 19:53:06.957423  4089 net.cpp:100] Creating Layer res4b5_branch2a_relu
I0509 19:53:06.957438  4089 net.cpp:444] res4b5_branch2a_relu <- res4b5_branch2a
I0509 19:53:06.957454  4089 net.cpp:405] res4b5_branch2a_relu -> res4b5_branch2a (in-place)
I0509 19:53:06.957473  4089 net.cpp:150] Setting up res4b5_branch2a_relu
I0509 19:53:06.957489  4089 net.cpp:157] Top shape: 1 256 38 63 (612864)
I0509 19:53:06.957504  4089 net.cpp:165] Memory required for data: 2585285460
I0509 19:53:06.957518  4089 layer_factory.hpp:77] Creating layer res4b5_branch2b
I0509 19:53:06.957540  4089 net.cpp:100] Creating Layer res4b5_branch2b
I0509 19:53:06.957556  4089 net.cpp:444] res4b5_branch2b <- res4b5_branch2a
I0509 19:53:06.957571  4089 net.cpp:418] res4b5_branch2b -> res4b5_branch2b
I0509 19:53:06.959847  4089 net.cpp:150] Setting up res4b5_branch2b
I0509 19:53:06.959887  4089 net.cpp:157] Top shape: 1 256 38 63 (612864)
I0509 19:53:06.959905  4089 net.cpp:165] Memory required for data: 2587736916
I0509 19:53:06.959924  4089 layer_factory.hpp:77] Creating layer bn4b5_branch2b
I0509 19:53:06.959949  4089 net.cpp:100] Creating Layer bn4b5_branch2b
I0509 19:53:06.959969  4089 net.cpp:444] bn4b5_branch2b <- res4b5_branch2b
I0509 19:53:06.959987  4089 net.cpp:405] bn4b5_branch2b -> res4b5_branch2b (in-place)
I0509 19:53:06.960367  4089 net.cpp:150] Setting up bn4b5_branch2b
I0509 19:53:06.960397  4089 net.cpp:157] Top shape: 1 256 38 63 (612864)
I0509 19:53:06.960412  4089 net.cpp:165] Memory required for data: 2590188372
I0509 19:53:06.960436  4089 layer_factory.hpp:77] Creating layer scale4b5_branch2b
I0509 19:53:06.960458  4089 net.cpp:100] Creating Layer scale4b5_branch2b
I0509 19:53:06.960474  4089 net.cpp:444] scale4b5_branch2b <- res4b5_branch2b
I0509 19:53:06.960492  4089 net.cpp:405] scale4b5_branch2b -> res4b5_branch2b (in-place)
I0509 19:53:06.960577  4089 layer_factory.hpp:77] Creating layer scale4b5_branch2b
I0509 19:53:06.960803  4089 net.cpp:150] Setting up scale4b5_branch2b
I0509 19:53:06.960830  4089 net.cpp:157] Top shape: 1 256 38 63 (612864)
I0509 19:53:06.960847  4089 net.cpp:165] Memory required for data: 2592639828
I0509 19:53:06.960865  4089 layer_factory.hpp:77] Creating layer res4b5_branch2b_relu
I0509 19:53:06.960885  4089 net.cpp:100] Creating Layer res4b5_branch2b_relu
I0509 19:53:06.960902  4089 net.cpp:444] res4b5_branch2b_relu <- res4b5_branch2b
I0509 19:53:06.960917  4089 net.cpp:405] res4b5_branch2b_relu -> res4b5_branch2b (in-place)
I0509 19:53:06.960935  4089 net.cpp:150] Setting up res4b5_branch2b_relu
I0509 19:53:06.960952  4089 net.cpp:157] Top shape: 1 256 38 63 (612864)
I0509 19:53:06.960964  4089 net.cpp:165] Memory required for data: 2595091284
I0509 19:53:06.960978  4089 layer_factory.hpp:77] Creating layer res4b5_branch2c
I0509 19:53:06.961000  4089 net.cpp:100] Creating Layer res4b5_branch2c
I0509 19:53:06.961017  4089 net.cpp:444] res4b5_branch2c <- res4b5_branch2b
I0509 19:53:06.961036  4089 net.cpp:418] res4b5_branch2c -> res4b5_branch2c
I0509 19:53:06.962962  4089 net.cpp:150] Setting up res4b5_branch2c
I0509 19:53:06.962996  4089 net.cpp:157] Top shape: 1 1024 38 63 (2451456)
I0509 19:53:06.963016  4089 net.cpp:165] Memory required for data: 2604897108
I0509 19:53:06.963034  4089 layer_factory.hpp:77] Creating layer bn4b5_branch2c
I0509 19:53:06.963055  4089 net.cpp:100] Creating Layer bn4b5_branch2c
I0509 19:53:06.963071  4089 net.cpp:444] bn4b5_branch2c <- res4b5_branch2c
I0509 19:53:06.963094  4089 net.cpp:405] bn4b5_branch2c -> res4b5_branch2c (in-place)
I0509 19:53:06.963475  4089 net.cpp:150] Setting up bn4b5_branch2c
I0509 19:53:06.963508  4089 net.cpp:157] Top shape: 1 1024 38 63 (2451456)
I0509 19:53:06.963523  4089 net.cpp:165] Memory required for data: 2614702932
I0509 19:53:06.963546  4089 layer_factory.hpp:77] Creating layer scale4b5_branch2c
I0509 19:53:06.963570  4089 net.cpp:100] Creating Layer scale4b5_branch2c
I0509 19:53:06.963587  4089 net.cpp:444] scale4b5_branch2c <- res4b5_branch2c
I0509 19:53:06.963603  4089 net.cpp:405] scale4b5_branch2c -> res4b5_branch2c (in-place)
I0509 19:53:06.963686  4089 layer_factory.hpp:77] Creating layer scale4b5_branch2c
I0509 19:53:06.963922  4089 net.cpp:150] Setting up scale4b5_branch2c
I0509 19:53:06.963946  4089 net.cpp:157] Top shape: 1 1024 38 63 (2451456)
I0509 19:53:06.963960  4089 net.cpp:165] Memory required for data: 2624508756
I0509 19:53:06.963992  4089 layer_factory.hpp:77] Creating layer res4b5
I0509 19:53:06.964010  4089 net.cpp:100] Creating Layer res4b5
I0509 19:53:06.964025  4089 net.cpp:444] res4b5 <- res4b4_res4b4_relu_0_split_1
I0509 19:53:06.964041  4089 net.cpp:444] res4b5 <- res4b5_branch2c
I0509 19:53:06.964059  4089 net.cpp:418] res4b5 -> res4b5
I0509 19:53:06.964114  4089 net.cpp:150] Setting up res4b5
I0509 19:53:06.964136  4089 net.cpp:157] Top shape: 1 1024 38 63 (2451456)
I0509 19:53:06.964154  4089 net.cpp:165] Memory required for data: 2634314580
I0509 19:53:06.964172  4089 layer_factory.hpp:77] Creating layer res4b5_relu
I0509 19:53:06.964191  4089 net.cpp:100] Creating Layer res4b5_relu
I0509 19:53:06.964206  4089 net.cpp:444] res4b5_relu <- res4b5
I0509 19:53:06.964221  4089 net.cpp:405] res4b5_relu -> res4b5 (in-place)
I0509 19:53:06.964239  4089 net.cpp:150] Setting up res4b5_relu
I0509 19:53:06.964256  4089 net.cpp:157] Top shape: 1 1024 38 63 (2451456)
I0509 19:53:06.964268  4089 net.cpp:165] Memory required for data: 2644120404
I0509 19:53:06.964282  4089 layer_factory.hpp:77] Creating layer res4b5_res4b5_relu_0_split
I0509 19:53:06.964298  4089 net.cpp:100] Creating Layer res4b5_res4b5_relu_0_split
I0509 19:53:06.964313  4089 net.cpp:444] res4b5_res4b5_relu_0_split <- res4b5
I0509 19:53:06.964329  4089 net.cpp:418] res4b5_res4b5_relu_0_split -> res4b5_res4b5_relu_0_split_0
I0509 19:53:06.964349  4089 net.cpp:418] res4b5_res4b5_relu_0_split -> res4b5_res4b5_relu_0_split_1
I0509 19:53:06.964426  4089 net.cpp:150] Setting up res4b5_res4b5_relu_0_split
I0509 19:53:06.964448  4089 net.cpp:157] Top shape: 1 1024 38 63 (2451456)
I0509 19:53:06.964463  4089 net.cpp:157] Top shape: 1 1024 38 63 (2451456)
I0509 19:53:06.964476  4089 net.cpp:165] Memory required for data: 2663732052
I0509 19:53:06.964490  4089 layer_factory.hpp:77] Creating layer res4b6_branch2a
I0509 19:53:06.964510  4089 net.cpp:100] Creating Layer res4b6_branch2a
I0509 19:53:06.964529  4089 net.cpp:444] res4b6_branch2a <- res4b5_res4b5_relu_0_split_0
I0509 19:53:06.964548  4089 net.cpp:418] res4b6_branch2a -> res4b6_branch2a
I0509 19:53:06.965090  4089 net.cpp:150] Setting up res4b6_branch2a
I0509 19:53:06.965114  4089 net.cpp:157] Top shape: 1 256 38 63 (612864)
I0509 19:53:06.965129  4089 net.cpp:165] Memory required for data: 2666183508
I0509 19:53:06.965144  4089 layer_factory.hpp:77] Creating layer bn4b6_branch2a
I0509 19:53:06.965165  4089 net.cpp:100] Creating Layer bn4b6_branch2a
I0509 19:53:06.965183  4089 net.cpp:444] bn4b6_branch2a <- res4b6_branch2a
I0509 19:53:06.965203  4089 net.cpp:405] bn4b6_branch2a -> res4b6_branch2a (in-place)
I0509 19:53:06.965553  4089 net.cpp:150] Setting up bn4b6_branch2a
I0509 19:53:06.965579  4089 net.cpp:157] Top shape: 1 256 38 63 (612864)
I0509 19:53:06.965593  4089 net.cpp:165] Memory required for data: 2668634964
I0509 19:53:06.965612  4089 layer_factory.hpp:77] Creating layer scale4b6_branch2a
I0509 19:53:06.965632  4089 net.cpp:100] Creating Layer scale4b6_branch2a
I0509 19:53:06.965648  4089 net.cpp:444] scale4b6_branch2a <- res4b6_branch2a
I0509 19:53:06.965667  4089 net.cpp:405] scale4b6_branch2a -> res4b6_branch2a (in-place)
I0509 19:53:06.965750  4089 layer_factory.hpp:77] Creating layer scale4b6_branch2a
I0509 19:53:06.965972  4089 net.cpp:150] Setting up scale4b6_branch2a
I0509 19:53:06.965998  4089 net.cpp:157] Top shape: 1 256 38 63 (612864)
I0509 19:53:06.966013  4089 net.cpp:165] Memory required for data: 2671086420
I0509 19:53:06.966030  4089 layer_factory.hpp:77] Creating layer res4b6_branch2a_relu
I0509 19:53:06.966048  4089 net.cpp:100] Creating Layer res4b6_branch2a_relu
I0509 19:53:06.966065  4089 net.cpp:444] res4b6_branch2a_relu <- res4b6_branch2a
I0509 19:53:06.966081  4089 net.cpp:405] res4b6_branch2a_relu -> res4b6_branch2a (in-place)
I0509 19:53:06.966099  4089 net.cpp:150] Setting up res4b6_branch2a_relu
I0509 19:53:06.966115  4089 net.cpp:157] Top shape: 1 256 38 63 (612864)
I0509 19:53:06.966128  4089 net.cpp:165] Memory required for data: 2673537876
I0509 19:53:06.966141  4089 layer_factory.hpp:77] Creating layer res4b6_branch2b
I0509 19:53:06.966162  4089 net.cpp:100] Creating Layer res4b6_branch2b
I0509 19:53:06.966177  4089 net.cpp:444] res4b6_branch2b <- res4b6_branch2a
I0509 19:53:06.966195  4089 net.cpp:418] res4b6_branch2b -> res4b6_branch2b
I0509 19:53:06.968479  4089 net.cpp:150] Setting up res4b6_branch2b
I0509 19:53:06.968518  4089 net.cpp:157] Top shape: 1 256 38 63 (612864)
I0509 19:53:06.968536  4089 net.cpp:165] Memory required for data: 2675989332
I0509 19:53:06.968554  4089 layer_factory.hpp:77] Creating layer bn4b6_branch2b
I0509 19:53:06.968580  4089 net.cpp:100] Creating Layer bn4b6_branch2b
I0509 19:53:06.968597  4089 net.cpp:444] bn4b6_branch2b <- res4b6_branch2b
I0509 19:53:06.968616  4089 net.cpp:405] bn4b6_branch2b -> res4b6_branch2b (in-place)
I0509 19:53:06.968982  4089 net.cpp:150] Setting up bn4b6_branch2b
I0509 19:53:06.969008  4089 net.cpp:157] Top shape: 1 256 38 63 (612864)
I0509 19:53:06.969030  4089 net.cpp:165] Memory required for data: 2678440788
I0509 19:53:06.969050  4089 layer_factory.hpp:77] Creating layer scale4b6_branch2b
I0509 19:53:06.969070  4089 net.cpp:100] Creating Layer scale4b6_branch2b
I0509 19:53:06.969086  4089 net.cpp:444] scale4b6_branch2b <- res4b6_branch2b
I0509 19:53:06.969106  4089 net.cpp:405] scale4b6_branch2b -> res4b6_branch2b (in-place)
I0509 19:53:06.969197  4089 layer_factory.hpp:77] Creating layer scale4b6_branch2b
I0509 19:53:06.969424  4089 net.cpp:150] Setting up scale4b6_branch2b
I0509 19:53:06.969449  4089 net.cpp:157] Top shape: 1 256 38 63 (612864)
I0509 19:53:06.969466  4089 net.cpp:165] Memory required for data: 2680892244
I0509 19:53:06.969485  4089 layer_factory.hpp:77] Creating layer res4b6_branch2b_relu
I0509 19:53:06.969503  4089 net.cpp:100] Creating Layer res4b6_branch2b_relu
I0509 19:53:06.969517  4089 net.cpp:444] res4b6_branch2b_relu <- res4b6_branch2b
I0509 19:53:06.969533  4089 net.cpp:405] res4b6_branch2b_relu -> res4b6_branch2b (in-place)
I0509 19:53:06.969553  4089 net.cpp:150] Setting up res4b6_branch2b_relu
I0509 19:53:06.969571  4089 net.cpp:157] Top shape: 1 256 38 63 (612864)
I0509 19:53:06.969585  4089 net.cpp:165] Memory required for data: 2683343700
I0509 19:53:06.969599  4089 layer_factory.hpp:77] Creating layer res4b6_branch2c
I0509 19:53:06.969619  4089 net.cpp:100] Creating Layer res4b6_branch2c
I0509 19:53:06.969636  4089 net.cpp:444] res4b6_branch2c <- res4b6_branch2b
I0509 19:53:06.969653  4089 net.cpp:418] res4b6_branch2c -> res4b6_branch2c
I0509 19:53:06.971602  4089 net.cpp:150] Setting up res4b6_branch2c
I0509 19:53:06.971637  4089 net.cpp:157] Top shape: 1 1024 38 63 (2451456)
I0509 19:53:06.971652  4089 net.cpp:165] Memory required for data: 2693149524
I0509 19:53:06.971670  4089 layer_factory.hpp:77] Creating layer bn4b6_branch2c
I0509 19:53:06.971693  4089 net.cpp:100] Creating Layer bn4b6_branch2c
I0509 19:53:06.971709  4089 net.cpp:444] bn4b6_branch2c <- res4b6_branch2c
…
I0510 06:32:52.423316 27209 net.cpp:150] Setting up scale4b21_branch2b
I0510 06:32:52.423346 27209 net.cpp:157] Top shape: 1 256 14 14 (50176)
I0510 06:32:52.423360 27209 net.cpp:165] Memory required for data: 330358796
I0510 06:32:52.423379 27209 layer_factory.hpp:77] Creating layer res4b21_branch2b_relu
I0510 06:32:52.423398 27209 net.cpp:100] Creating Layer res4b21_branch2b_relu
I0510 06:32:52.423415 27209 net.cpp:444] res4b21_branch2b_relu <- res4b21_branch2b
I0510 06:32:52.423434 27209 net.cpp:405] res4b21_branch2b_relu -> res4b21_branch2b (in-place)
I0510 06:32:52.423454 27209 net.cpp:150] Setting up res4b21_branch2b_relu
I0510 06:32:52.423470 27209 net.cpp:157] Top shape: 1 256 14 14 (50176)
I0510 06:32:52.423492 27209 net.cpp:165] Memory required for data: 330559500
I0510 06:32:52.423508 27209 layer_factory.hpp:77] Creating layer res4b21_branch2c
I0510 06:32:52.423535 27209 net.cpp:100] Creating Layer res4b21_branch2c
I0510 06:32:52.423552 27209 net.cpp:444] res4b21_branch2c <- res4b21_branch2b
I0510 06:32:52.423570 27209 net.cpp:418] res4b21_branch2c -> res4b21_branch2c
I0510 06:32:52.425628 27209 net.cpp:150] Setting up res4b21_branch2c
I0510 06:32:52.425665 27209 net.cpp:157] Top shape: 1 1024 14 14 (200704)
I0510 06:32:52.425681 27209 net.cpp:165] Memory required for data: 331362316
I0510 06:32:52.425701 27209 layer_factory.hpp:77] Creating layer bn4b21_branch2c
I0510 06:32:52.425724 27209 net.cpp:100] Creating Layer bn4b21_branch2c
I0510 06:32:52.425741 27209 net.cpp:444] bn4b21_branch2c <- res4b21_branch2c
I0510 06:32:52.425760 27209 net.cpp:405] bn4b21_branch2c -> res4b21_branch2c (in-place)
I0510 06:32:52.426180 27209 net.cpp:150] Setting up bn4b21_branch2c
I0510 06:32:52.426209 27209 net.cpp:157] Top shape: 1 1024 14 14 (200704)
I0510 06:32:52.426224 27209 net.cpp:165] Memory required for data: 332165132
I0510 06:32:52.426249 27209 layer_factory.hpp:77] Creating layer scale4b21_branch2c
I0510 06:32:52.426272 27209 net.cpp:100] Creating Layer scale4b21_branch2c
I0510 06:32:52.426290 27209 net.cpp:444] scale4b21_branch2c <- res4b21_branch2c
I0510 06:32:52.426307 27209 net.cpp:405] scale4b21_branch2c -> res4b21_branch2c (in-place)
I0510 06:32:52.426398 27209 layer_factory.hpp:77] Creating layer scale4b21_branch2c
I0510 06:32:52.426652 27209 net.cpp:150] Setting up scale4b21_branch2c
I0510 06:32:52.426681 27209 net.cpp:157] Top shape: 1 1024 14 14 (200704)
I0510 06:32:52.426695 27209 net.cpp:165] Memory required for data: 332967948
I0510 06:32:52.426714 27209 layer_factory.hpp:77] Creating layer res4b21
I0510 06:32:52.426733 27209 net.cpp:100] Creating Layer res4b21
I0510 06:32:52.426753 27209 net.cpp:444] res4b21 <- res4b20_res4b20_relu_0_split_1
I0510 06:32:52.426769 27209 net.cpp:444] res4b21 <- res4b21_branch2c
I0510 06:32:52.426786 27209 net.cpp:418] res4b21 -> res4b21
I0510 06:32:52.426847 27209 net.cpp:150] Setting up res4b21
I0510 06:32:52.426873 27209 net.cpp:157] Top shape: 1 1024 14 14 (200704)
I0510 06:32:52.426888 27209 net.cpp:165] Memory required for data: 333770764
I0510 06:32:52.426904 27209 layer_factory.hpp:77] Creating layer res4b21_relu
I0510 06:32:52.426921 27209 net.cpp:100] Creating Layer res4b21_relu
I0510 06:32:52.426937 27209 net.cpp:444] res4b21_relu <- res4b21
I0510 06:32:52.426954 27209 net.cpp:405] res4b21_relu -> res4b21 (in-place)
I0510 06:32:52.426973 27209 net.cpp:150] Setting up res4b21_relu
I0510 06:32:52.426990 27209 net.cpp:157] Top shape: 1 1024 14 14 (200704)
I0510 06:32:52.427004 27209 net.cpp:165] Memory required for data: 334573580
I0510 06:32:52.427019 27209 layer_factory.hpp:77] Creating layer res4b21_res4b21_relu_0_split
I0510 06:32:52.427037 27209 net.cpp:100] Creating Layer res4b21_res4b21_relu_0_split
I0510 06:32:52.427052 27209 net.cpp:444] res4b21_res4b21_relu_0_split <- res4b21
I0510 06:32:52.427073 27209 net.cpp:418] res4b21_res4b21_relu_0_split -> res4b21_res4b21_relu_0_split_0
I0510 06:32:52.427093 27209 net.cpp:418] res4b21_res4b21_relu_0_split -> res4b21_res4b21_relu_0_split_1
I0510 06:32:52.427181 27209 net.cpp:150] Setting up res4b21_res4b21_relu_0_split
I0510 06:32:52.427206 27209 net.cpp:157] Top shape: 1 1024 14 14 (200704)
I0510 06:32:52.427223 27209 net.cpp:157] Top shape: 1 1024 14 14 (200704)
I0510 06:32:52.427237 27209 net.cpp:165] Memory required for data: 336179212
I0510 06:32:52.427253 27209 layer_factory.hpp:77] Creating layer res4b22_branch2a
I0510 06:32:52.427274 27209 net.cpp:100] Creating Layer res4b22_branch2a
I0510 06:32:52.427291 27209 net.cpp:444] res4b22_branch2a <- res4b21_res4b21_relu_0_split_0
I0510 06:32:52.427311 27209 net.cpp:418] res4b22_branch2a -> res4b22_branch2a
I0510 06:32:52.427894 27209 net.cpp:150] Setting up res4b22_branch2a
I0510 06:32:52.427924 27209 net.cpp:157] Top shape: 1 256 14 14 (50176)
I0510 06:32:52.427940 27209 net.cpp:165] Memory required for data: 336379916
I0510 06:32:52.427958 27209 layer_factory.hpp:77] Creating layer bn4b22_branch2a
I0510 06:32:52.427984 27209 net.cpp:100] Creating Layer bn4b22_branch2a
I0510 06:32:52.428002 27209 net.cpp:444] bn4b22_branch2a <- res4b22_branch2a
I0510 06:32:52.428021 27209 net.cpp:405] bn4b22_branch2a -> res4b22_branch2a (in-place)
I0510 06:32:52.428433 27209 net.cpp:150] Setting up bn4b22_branch2a
I0510 06:32:52.428462 27209 net.cpp:157] Top shape: 1 256 14 14 (50176)
I0510 06:32:52.428477 27209 net.cpp:165] Memory required for data: 336580620
I0510 06:32:52.428498 27209 layer_factory.hpp:77] Creating layer scale4b22_branch2a
I0510 06:32:52.428517 27209 net.cpp:100] Creating Layer scale4b22_branch2a
I0510 06:32:52.428534 27209 net.cpp:444] scale4b22_branch2a <- res4b22_branch2a
I0510 06:32:52.428553 27209 net.cpp:405] scale4b22_branch2a -> res4b22_branch2a (in-place)
I0510 06:32:52.428648 27209 layer_factory.hpp:77] Creating layer scale4b22_branch2a
I0510 06:32:52.428889 27209 net.cpp:150] Setting up scale4b22_branch2a
I0510 06:32:52.428917 27209 net.cpp:157] Top shape: 1 256 14 14 (50176)
I0510 06:32:52.428931 27209 net.cpp:165] Memory required for data: 336781324
I0510 06:32:52.428951 27209 layer_factory.hpp:77] Creating layer res4b22_branch2a_relu
I0510 06:32:52.428969 27209 net.cpp:100] Creating Layer res4b22_branch2a_relu
I0510 06:32:52.428984 27209 net.cpp:444] res4b22_branch2a_relu <- res4b22_branch2a
I0510 06:32:52.429002 27209 net.cpp:405] res4b22_branch2a_relu -> res4b22_branch2a (in-place)
I0510 06:32:52.429021 27209 net.cpp:150] Setting up res4b22_branch2a_relu
I0510 06:32:52.429039 27209 net.cpp:157] Top shape: 1 256 14 14 (50176)
I0510 06:32:52.429052 27209 net.cpp:165] Memory required for data: 336982028
I0510 06:32:52.429067 27209 layer_factory.hpp:77] Creating layer res4b22_branch2b
I0510 06:32:52.429090 27209 net.cpp:100] Creating Layer res4b22_branch2b
I0510 06:32:52.429105 27209 net.cpp:444] res4b22_branch2b <- res4b22_branch2a
I0510 06:32:52.429123 27209 net.cpp:418] res4b22_branch2b -> res4b22_branch2b
I0510 06:32:52.431457 27209 net.cpp:150] Setting up res4b22_branch2b
I0510 06:32:52.431498 27209 net.cpp:157] Top shape: 1 256 14 14 (50176)
I0510 06:32:52.431514 27209 net.cpp:165] Memory required for data: 337182732
I0510 06:32:52.431533 27209 layer_factory.hpp:77] Creating layer bn4b22_branch2b
I0510 06:32:52.431555 27209 net.cpp:100] Creating Layer bn4b22_branch2b
I0510 06:32:52.431572 27209 net.cpp:444] bn4b22_branch2b <- res4b22_branch2b
I0510 06:32:52.431591 27209 net.cpp:405] bn4b22_branch2b -> res4b22_branch2b (in-place)
I0510 06:32:52.431991 27209 net.cpp:150] Setting up bn4b22_branch2b
I0510 06:32:52.432021 27209 net.cpp:157] Top shape: 1 256 14 14 (50176)
I0510 06:32:52.432036 27209 net.cpp:165] Memory required for data: 337383436
I0510 06:32:52.432060 27209 layer_factory.hpp:77] Creating layer scale4b22_branch2b
I0510 06:32:52.432081 27209 net.cpp:100] Creating Layer scale4b22_branch2b
I0510 06:32:52.432098 27209 net.cpp:444] scale4b22_branch2b <- res4b22_branch2b
I0510 06:32:52.432118 27209 net.cpp:405] scale4b22_branch2b -> res4b22_branch2b (in-place)
I0510 06:32:52.432219 27209 layer_factory.hpp:77] Creating layer scale4b22_branch2b
I0510 06:32:52.432482 27209 net.cpp:150] Setting up scale4b22_branch2b
I0510 06:32:52.432512 27209 net.cpp:157] Top shape: 1 256 14 14 (50176)
I0510 06:32:52.432530 27209 net.cpp:165] Memory required for data: 337584140
I0510 06:32:52.432550 27209 layer_factory.hpp:77] Creating layer res4b22_branch2b_relu
I0510 06:32:52.432569 27209 net.cpp:100] Creating Layer res4b22_branch2b_relu
I0510 06:32:52.432585 27209 net.cpp:444] res4b22_branch2b_relu <- res4b22_branch2b
I0510 06:32:52.432602 27209 net.cpp:405] res4b22_branch2b_relu -> res4b22_branch2b (in-place)
I0510 06:32:52.432622 27209 net.cpp:150] Setting up res4b22_branch2b_relu
I0510 06:32:52.432639 27209 net.cpp:157] Top shape: 1 256 14 14 (50176)
I0510 06:32:52.432654 27209 net.cpp:165] Memory required for data: 337784844
I0510 06:32:52.432669 27209 layer_factory.hpp:77] Creating layer res4b22_branch2c
I0510 06:32:52.432692 27209 net.cpp:100] Creating Layer res4b22_branch2c
I0510 06:32:52.432713 27209 net.cpp:444] res4b22_branch2c <- res4b22_branch2b
I0510 06:32:52.432732 27209 net.cpp:418] res4b22_branch2c -> res4b22_branch2c
I0510 06:32:52.434799 27209 net.cpp:150] Setting up res4b22_branch2c
I0510 06:32:52.434837 27209 net.cpp:157] Top shape: 1 1024 14 14 (200704)
I0510 06:32:52.434854 27209 net.cpp:165] Memory required for data: 338587660
I0510 06:32:52.434873 27209 layer_factory.hpp:77] Creating layer bn4b22_branch2c
I0510 06:32:52.434895 27209 net.cpp:100] Creating Layer bn4b22_branch2c
I0510 06:32:52.434911 27209 net.cpp:444] bn4b22_branch2c <- res4b22_branch2c
I0510 06:32:52.434929 27209 net.cpp:405] bn4b22_branch2c -> res4b22_branch2c (in-place)
I0510 06:32:52.435334 27209 net.cpp:150] Setting up bn4b22_branch2c
I0510 06:32:52.435364 27209 net.cpp:157] Top shape: 1 1024 14 14 (200704)
I0510 06:32:52.435379 27209 net.cpp:165] Memory required for data: 339390476
I0510 06:32:52.435401 27209 layer_factory.hpp:77] Creating layer scale4b22_branch2c
I0510 06:32:52.435426 27209 net.cpp:100] Creating Layer scale4b22_branch2c
I0510 06:32:52.435444 27209 net.cpp:444] scale4b22_branch2c <- res4b22_branch2c
I0510 06:32:52.435463 27209 net.cpp:405] scale4b22_branch2c -> res4b22_branch2c (in-place)
I0510 06:32:52.435560 27209 layer_factory.hpp:77] Creating layer scale4b22_branch2c
I0510 06:32:52.435837 27209 net.cpp:150] Setting up scale4b22_branch2c
I0510 06:32:52.435868 27209 net.cpp:157] Top shape: 1 1024 14 14 (200704)
I0510 06:32:52.435883 27209 net.cpp:165] Memory required for data: 340193292
I0510 06:32:52.435902 27209 layer_factory.hpp:77] Creating layer res4b22
I0510 06:32:52.435925 27209 net.cpp:100] Creating Layer res4b22
I0510 06:32:52.435940 27209 net.cpp:444] res4b22 <- res4b21_res4b21_relu_0_split_1
I0510 06:32:52.435958 27209 net.cpp:444] res4b22 <- res4b22_branch2c
I0510 06:32:52.435976 27209 net.cpp:418] res4b22 -> res4b22
I0510 06:32:52.436035 27209 net.cpp:150] Setting up res4b22
I0510 06:32:52.436061 27209 net.cpp:157] Top shape: 1 1024 14 14 (200704)
I0510 06:32:52.436076 27209 net.cpp:165] Memory required for data: 340996108
I0510 06:32:52.436091 27209 layer_factory.hpp:77] Creating layer res4b22_relu
I0510 06:32:52.436111 27209 net.cpp:100] Creating Layer res4b22_relu
I0510 06:32:52.436128 27209 net.cpp:444] res4b22_relu <- res4b22
I0510 06:32:52.436146 27209 net.cpp:405] res4b22_relu -> res4b22 (in-place)
I0510 06:32:52.436166 27209 net.cpp:150] Setting up res4b22_relu
I0510 06:32:52.436182 27209 net.cpp:157] Top shape: 1 1024 14 14 (200704)
I0510 06:32:52.436197 27209 net.cpp:165] Memory required for data: 341798924
I0510 06:32:52.436211 27209 layer_factory.hpp:77] Creating layer res4b22_res4b22_relu_0_split
I0510 06:32:52.436233 27209 net.cpp:100] Creating Layer res4b22_res4b22_relu_0_split
I0510 06:32:52.436249 27209 net.cpp:444] res4b22_res4b22_relu_0_split <- res4b22
I0510 06:32:52.436266 27209 net.cpp:418] res4b22_res4b22_relu_0_split -> res4b22_res4b22_relu_0_split_0
I0510 06:32:52.436286 27209 net.cpp:418] res4b22_res4b22_relu_0_split -> res4b22_res4b22_relu_0_split_1
I0510 06:32:52.436306 27209 net.cpp:418] res4b22_res4b22_relu_0_split -> res4b22_res4b22_relu_0_split_2
I0510 06:32:52.436421 27209 net.cpp:150] Setting up res4b22_res4b22_relu_0_split
I0510 06:32:52.436450 27209 net.cpp:157] Top shape: 1 1024 14 14 (200704)
I0510 06:32:52.436470 27209 net.cpp:157] Top shape: 1 1024 14 14 (200704)
I0510 06:32:52.436486 27209 net.cpp:157] Top shape: 1 1024 14 14 (200704)
I0510 06:32:52.436501 27209 net.cpp:165] Memory required for data: 344207372
I0510 06:32:52.436518 27209 layer_factory.hpp:77] Creating layer res5a_branch1
I0510 06:32:52.436544 27209 net.cpp:100] Creating Layer res5a_branch1
I0510 06:32:52.436563 27209 net.cpp:444] res5a_branch1 <- res4b22_res4b22_relu_0_split_0
I0510 06:32:52.436583 27209 net.cpp:418] res5a_branch1 -> res5a_branch1
I0510 06:32:52.442559 27209 net.cpp:150] Setting up res5a_branch1
I0510 06:32:52.442639 27209 net.cpp:157] Top shape: 1 2048 14 14 (401408)
I0510 06:32:52.442656 27209 net.cpp:165] Memory required for data: 345813004
I0510 06:32:52.442679 27209 layer_factory.hpp:77] Creating layer bn5a_branch1
I0510 06:32:52.442716 27209 net.cpp:100] Creating Layer bn5a_branch1
I0510 06:32:52.442736 27209 net.cpp:444] bn5a_branch1 <- res5a_branch1
I0510 06:32:52.442759 27209 net.cpp:405] bn5a_branch1 -> res5a_branch1 (in-place)
I0510 06:32:52.443224 27209 net.cpp:150] Setting up bn5a_branch1
I0510 06:32:52.443258 27209 net.cpp:157] Top shape: 1 2048 14 14 (401408)
I0510 06:32:52.443277 27209 net.cpp:165] Memory required for data: 347418636
I0510 06:32:52.443300 27209 layer_factory.hpp:77] Creating layer scale5a_branch1
I0510 06:32:52.443321 27209 net.cpp:100] Creating Layer scale5a_branch1
I0510 06:32:52.443337 27209 net.cpp:444] scale5a_branch1 <- res5a_branch1
I0510 06:32:52.443357 27209 net.cpp:405] scale5a_branch1 -> res5a_branch1 (in-place)
I0510 06:32:52.443451 27209 layer_factory.hpp:77] Creating layer scale5a_branch1
I0510 06:32:52.443750 27209 net.cpp:150] Setting up scale5a_branch1
I0510 06:32:52.443783 27209 net.cpp:157] Top shape: 1 2048 14 14 (401408)
I0510 06:32:52.443800 27209 net.cpp:165] Memory required for data: 349024268
I0510 06:32:52.443821 27209 layer_factory.hpp:77] Creating layer res5a_branch2a
I0510 06:32:52.443847 27209 net.cpp:100] Creating Layer res5a_branch2a
I0510 06:32:52.443866 27209 net.cpp:444] res5a_branch2a <- res4b22_res4b22_relu_0_split_1
I0510 06:32:52.443888 27209 net.cpp:418] res5a_branch2a -> res5a_branch2a
I0510 06:32:52.446249 27209 net.cpp:150] Setting up res5a_branch2a
I0510 06:32:52.446287 27209 net.cpp:157] Top shape: 1 512 14 14 (100352)
I0510 06:32:52.446305 27209 net.cpp:165] Memory required for data: 349425676
I0510 06:32:52.446324 27209 layer_factory.hpp:77] Creating layer bn5a_branch2a
I0510 06:32:52.446346 27209 net.cpp:100] Creating Layer bn5a_branch2a
I0510 06:32:52.446363 27209 net.cpp:444] bn5a_branch2a <- res5a_branch2a
I0510 06:32:52.446383 27209 net.cpp:405] bn5a_branch2a -> res5a_branch2a (in-place)
I0510 06:32:52.446835 27209 net.cpp:150] Setting up bn5a_branch2a
I0510 06:32:52.446863 27209 net.cpp:157] Top shape: 1 512 14 14 (100352)
I0510 06:32:52.446878 27209 net.cpp:165] Memory required for data: 349827084
I0510 06:32:52.446902 27209 layer_factory.hpp:77] Creating layer scale5a_branch2a
I0510 06:32:52.446923 27209 net.cpp:100] Creating Layer scale5a_branch2a
I0510 06:32:52.446940 27209 net.cpp:444] scale5a_branch2a <- res5a_branch2a
I0510 06:32:52.446959 27209 net.cpp:405] scale5a_branch2a -> res5a_branch2a (in-place)
I0510 06:32:52.447046 27209 layer_factory.hpp:77] Creating layer scale5a_branch2a
I0510 06:32:52.447300 27209 net.cpp:150] Setting up scale5a_branch2a
I0510 06:32:52.447329 27209 net.cpp:157] Top shape: 1 512 14 14 (100352)
I0510 06:32:52.447345 27209 net.cpp:165] Memory required for data: 350228492
I0510 06:32:52.447363 27209 layer_factory.hpp:77] Creating layer res5a_branch2a_relu
I0510 06:32:52.447384 27209 net.cpp:100] Creating Layer res5a_branch2a_relu
I0510 06:32:52.447402 27209 net.cpp:444] res5a_branch2a_relu <- res5a_branch2a
I0510 06:32:52.447418 27209 net.cpp:405] res5a_branch2a_relu -> res5a_branch2a (in-place)
I0510 06:32:52.447438 27209 net.cpp:150] Setting up res5a_branch2a_relu
I0510 06:32:52.447456 27209 net.cpp:157] Top shape: 1 512 14 14 (100352)
I0510 06:32:52.447470 27209 net.cpp:165] Memory required for data: 350629900
I0510 06:32:52.447491 27209 layer_factory.hpp:77] Creating layer res5a_branch2b
I0510 06:32:52.447512 27209 net.cpp:100] Creating Layer res5a_branch2b
I0510 06:32:52.447530 27209 net.cpp:444] res5a_branch2b <- res5a_branch2a
I0510 06:32:52.447549 27209 net.cpp:418] res5a_branch2b -> res5a_branch2b
I0510 06:32:52.454254 27209 net.cpp:150] Setting up res5a_branch2b
I0510 06:32:52.454344 27209 net.cpp:157] Top shape: 1 512 14 14 (100352)
I0510 06:32:52.454361 27209 net.cpp:165] Memory required for data: 351031308
I0510 06:32:52.454385 27209 layer_factory.hpp:77] Creating layer bn5a_branch2b
I0510 06:32:52.454417 27209 net.cpp:100] Creating Layer bn5a_branch2b
I0510 06:32:52.454442 27209 net.cpp:444] bn5a_branch2b <- res5a_branch2b
I0510 06:32:52.454468 27209 net.cpp:405] bn5a_branch2b -> res5a_branch2b (in-place)
I0510 06:32:52.454946 27209 net.cpp:150] Setting up bn5a_branch2b
I0510 06:32:52.454977 27209 net.cpp:157] Top shape: 1 512 14 14 (100352)
I0510 06:32:52.454994 27209 net.cpp:165] Memory required for data: 351432716
I0510 06:32:52.455018 27209 layer_factory.hpp:77] Creating layer scale5a_branch2b
I0510 06:32:52.455042 27209 net.cpp:100] Creating Layer scale5a_branch2b
I0510 06:32:52.455060 27209 net.cpp:444] scale5a_branch2b <- res5a_branch2b
I0510 06:32:52.455077 27209 net.cpp:405] scale5a_branch2b -> res5a_branch2b (in-place)
I0510 06:32:52.455176 27209 layer_factory.hpp:77] Creating layer scale5a_branch2b
I0510 06:32:52.455464 27209 net.cpp:150] Setting up scale5a_branch2b
I0510 06:32:52.455502 27209 net.cpp:157] Top shape: 1 512 14 14 (100352)
I0510 06:32:52.455519 27209 net.cpp:165] Memory required for data: 351834124
I0510 06:32:52.455541 27209 layer_factory.hpp:77] Creating layer res5a_branch2b_relu
I0510 06:32:52.455562 27209 net.cpp:100] Creating Layer res5a_branch2b_relu
I0510 06:32:52.455579 27209 net.cpp:444] res5a_branch2b_relu <- res5a_branch2b
I0510 06:32:52.455595 27209 net.cpp:405] res5a_branch2b_relu -> res5a_branch2b (in-place)
I0510 06:32:52.455616 27209 net.cpp:150] Setting up res5a_branch2b_relu
I0510 06:32:52.455633 27209 net.cpp:157] Top shape: 1 512 14 14 (100352)
I0510 06:32:52.455647 27209 net.cpp:165] Memory required for data: 352235532
I0510 06:32:52.455662 27209 layer_factory.hpp:77] Creating layer res5a_branch2c
I0510 06:32:52.455683 27209 net.cpp:100] Creating Layer res5a_branch2c
I0510 06:32:52.455698 27209 net.cpp:444] res5a_branch2c <- res5a_branch2b
I0510 06:32:52.455718 27209 net.cpp:418] res5a_branch2c -> res5a_branch2c
I0510 06:32:52.459303 27209 net.cpp:150] Setting up res5a_branch2c
I0510 06:32:52.459348 27209 net.cpp:157] Top shape: 1 2048 14 14 (401408)
I0510 06:32:52.459364 27209 net.cpp:165] Memory required for data: 353841164
I0510 06:32:52.459383 27209 layer_factory.hpp:77] Creating layer bn5a_branch2c
I0510 06:32:52.459405 27209 net.cpp:100] Creating Layer bn5a_branch2c
I0510 06:32:52.459424 27209 net.cpp:444] bn5a_branch2c <- res5a_branch2c
I0510 06:32:52.459441 27209 net.cpp:405] bn5a_branch2c -> res5a_branch2c (in-place)
I0510 06:32:52.459867 27209 net.cpp:150] Setting up bn5a_branch2c
I0510 06:32:52.459898 27209 net.cpp:157] Top shape: 1 2048 14 14 (401408)
I0510 06:32:52.459914 27209 net.cpp:165] Memory required for data: 355446796
I0510 06:32:52.459936 27209 layer_factory.hpp:77] Creating layer scale5a_branch2c
I0510 06:32:52.459956 27209 net.cpp:100] Creating Layer scale5a_branch2c
I0510 06:32:52.459972 27209 net.cpp:444] scale5a_branch2c <- res5a_branch2c
I0510 06:32:52.459991 27209 net.cpp:405] scale5a_branch2c -> res5a_branch2c (in-place)
I0510 06:32:52.460083 27209 layer_factory.hpp:77] Creating layer scale5a_branch2c
I0510 06:32:52.460342 27209 net.cpp:150] Setting up scale5a_branch2c
I0510 06:32:52.460371 27209 net.cpp:157] Top shape: 1 2048 14 14 (401408)
I0510 06:32:52.460386 27209 net.cpp:165] Memory required for data: 357052428
I0510 06:32:52.460408 27209 layer_factory.hpp:77] Creating layer res5a
I0510 06:32:52.460428 27209 net.cpp:100] Creating Layer res5a
I0510 06:32:52.460444 27209 net.cpp:444] res5a <- res5a_branch1
I0510 06:32:52.460460 27209 net.cpp:444] res5a <- res5a_branch2c
I0510 06:32:52.460479 27209 net.cpp:418] res5a -> res5a
I0510 06:32:52.460541 27209 net.cpp:150] Setting up res5a
I0510 06:32:52.460568 27209 net.cpp:157] Top shape: 1 2048 14 14 (401408)
I0510 06:32:52.460587 27209 net.cpp:165] Memory required for data: 358658060
I0510 06:32:52.460602 27209 layer_factory.hpp:77] Creating layer res5a_relu
I0510 06:32:52.460619 27209 net.cpp:100] Creating Layer res5a_relu
I0510 06:32:52.460635 27209 net.cpp:444] res5a_relu <- res5a
I0510 06:32:52.460651 27209 net.cpp:405] res5a_relu -> res5a (in-place)
I0510 06:32:52.460670 27209 net.cpp:150] Setting up res5a_relu
I0510 06:32:52.460692 27209 net.cpp:157] Top shape: 1 2048 14 14 (401408)
I0510 06:32:52.460708 27209 net.cpp:165] Memory required for data: 360263692
I0510 06:32:52.460731 27209 layer_factory.hpp:77] Creating layer res5a_res5a_relu_0_split
I0510 06:32:52.460752 27209 net.cpp:100] Creating Layer res5a_res5a_relu_0_split
I0510 06:32:52.460767 27209 net.cpp:444] res5a_res5a_relu_0_split <- res5a
I0510 06:32:52.460785 27209 net.cpp:418] res5a_res5a_relu_0_split -> res5a_res5a_relu_0_split_0
I0510 06:32:52.460804 27209 net.cpp:418] res5a_res5a_relu_0_split -> res5a_res5a_relu_0_split_1
I0510 06:32:52.460897 27209 net.cpp:150] Setting up res5a_res5a_relu_0_split
I0510 06:32:52.460923 27209 net.cpp:157] Top shape: 1 2048 14 14 (401408)
I0510 06:32:52.460940 27209 net.cpp:157] Top shape: 1 2048 14 14 (401408)
I0510 06:32:52.460955 27209 net.cpp:165] Memory required for data: 363474956
I0510 06:32:52.460970 27209 layer_factory.hpp:77] Creating layer res5b_branch2a
I0510 06:32:52.460993 27209 net.cpp:100] Creating Layer res5b_branch2a
I0510 06:32:52.461009 27209 net.cpp:444] res5b_branch2a <- res5a_res5a_relu_0_split_0
I0510 06:32:52.461028 27209 net.cpp:418] res5b_branch2a -> res5b_branch2a
I0510 06:32:52.464406 27209 net.cpp:150] Setting up res5b_branch2a
I0510 06:32:52.464452 27209 net.cpp:157] Top shape: 1 512 14 14 (100352)
I0510 06:32:52.464471 27209 net.cpp:165] Memory required for data: 363876364
I0510 06:32:52.464493 27209 layer_factory.hpp:77] Creating layer bn5b_branch2a
I0510 06:32:52.464515 27209 net.cpp:100] Creating Layer bn5b_branch2a
I0510 06:32:52.464532 27209 net.cpp:444] bn5b_branch2a <- res5b_branch2a
I0510 06:32:52.464552 27209 net.cpp:405] bn5b_branch2a -> res5b_branch2a (in-place)
I0510 06:32:52.465000 27209 net.cpp:150] Setting up bn5b_branch2a
I0510 06:32:52.465034 27209 net.cpp:157] Top shape: 1 512 14 14 (100352)
I0510 06:32:52.465051 27209 net.cpp:165] Memory required for data: 364277772
I0510 06:32:52.465075 27209 layer_factory.hpp:77] Creating layer scale5b_branch2a
I0510 06:32:52.465096 27209 net.cpp:100] Creating Layer scale5b_branch2a
I0510 06:32:52.465113 27209 net.cpp:444] scale5b_branch2a <- res5b_branch2a
I0510 06:32:52.465132 27209 net.cpp:405] scale5b_branch2a -> res5b_branch2a (in-place)
I0510 06:32:52.465227 27209 layer_factory.hpp:77] Creating layer scale5b_branch2a
I0510 06:32:52.465503 27209 net.cpp:150] Setting up scale5b_branch2a
I0510 06:32:52.465533 27209 net.cpp:157] Top shape: 1 512 14 14 (100352)
I0510 06:32:52.465549 27209 net.cpp:165] Memory required for data: 364679180
I0510 06:32:52.465570 27209 layer_factory.hpp:77] Creating layer res5b_branch2a_relu
I0510 06:32:52.465591 27209 net.cpp:100] Creating Layer res5b_branch2a_relu
I0510 06:32:52.465610 27209 net.cpp:444] res5b_branch2a_relu <- res5b_branch2a
I0510 06:32:52.465627 27209 net.cpp:405] res5b_branch2a_relu -> res5b_branch2a (in-place)
I0510 06:32:52.465651 27209 net.cpp:150] Setting up res5b_branch2a_relu
I0510 06:32:52.465670 27209 net.cpp:157] Top shape: 1 512 14 14 (100352)
I0510 06:32:52.465687 27209 net.cpp:165] Memory required for data: 365080588
I0510 06:32:52.465703 27209 layer_factory.hpp:77] Creating layer res5b_branch2b
I0510 06:32:52.465724 27209 net.cpp:100] Creating Layer res5b_branch2b
I0510 06:32:52.465742 27209 net.cpp:444] res5b_branch2b <- res5b_branch2a
I0510 06:32:52.465760 27209 net.cpp:418] res5b_branch2b -> res5b_branch2b
I0510 06:32:52.472398 27209 net.cpp:150] Setting up res5b_branch2b
I0510 06:32:52.472492 27209 net.cpp:157] Top shape: 1 512 14 14 (100352)
I0510 06:32:52.472510 27209 net.cpp:165] Memory required for data: 365481996
I0510 06:32:52.472533 27209 layer_factory.hpp:77] Creating layer bn5b_branch2b
I0510 06:32:52.472559 27209 net.cpp:100] Creating Layer bn5b_branch2b
I0510 06:32:52.472579 27209 net.cpp:444] bn5b_branch2b <- res5b_branch2b
I0510 06:32:52.472601 27209 net.cpp:405] bn5b_branch2b -> res5b_branch2b (in-place)
I0510 06:32:52.474617 27209 net.cpp:150] Setting up bn5b_branch2b
I0510 06:32:52.474655 27209 net.cpp:157] Top shape: 1 512 14 14 (100352)
I0510 06:32:52.474673 27209 net.cpp:165] Memory required for data: 365883404
I0510 06:32:52.474697 27209 layer_factory.hpp:77] Creating layer scale5b_branch2b
I0510 06:32:52.474735 27209 net.cpp:100] Creating Layer scale5b_branch2b
I0510 06:32:52.474753 27209 net.cpp:444] scale5b_branch2b <- res5b_branch2b
I0510 06:32:52.474773 27209 net.cpp:405] scale5b_branch2b -> res5b_branch2b (in-place)
I0510 06:32:52.474870 27209 layer_factory.hpp:77] Creating layer scale5b_branch2b
I0510 06:32:52.475107 27209 net.cpp:150] Setting up scale5b_branch2b
I0510 06:32:52.475136 27209 net.cpp:157] Top shape: 1 512 14 14 (100352)
I0510 06:32:52.475152 27209 net.cpp:165] Memory required for data: 366284812
I0510 06:32:52.475170 27209 layer_factory.hpp:77] Creating layer res5b_branch2b_relu
I0510 06:32:52.475189 27209 net.cpp:100] Creating Layer res5b_branch2b_relu
I0510 06:32:52.475205 27209 net.cpp:444] res5b_branch2b_relu <- res5b_branch2b
I0510 06:32:52.475222 27209 net.cpp:405] res5b_branch2b_relu -> res5b_branch2b (in-place)
I0510 06:32:52.475242 27209 net.cpp:150] Setting up res5b_branch2b_relu
I0510 06:32:52.475260 27209 net.cpp:157] Top shape: 1 512 14 14 (100352)
I0510 06:32:52.475275 27209 net.cpp:165] Memory required for data: 366686220
I0510 06:32:52.475289 27209 layer_factory.hpp:77] Creating layer res5b_branch2c
I0510 06:32:52.475313 27209 net.cpp:100] Creating Layer res5b_branch2c
I0510 06:32:52.475329 27209 net.cpp:444] res5b_branch2c <- res5b_branch2b
I0510 06:32:52.475348 27209 net.cpp:418] res5b_branch2c -> res5b_branch2c
I0510 06:32:52.478721 27209 net.cpp:150] Setting up res5b_branch2c
I0510 06:32:52.478771 27209 net.cpp:157] Top shape: 1 2048 14 14 (401408)
I0510 06:32:52.478788 27209 net.cpp:165] Memory required for data: 368291852
I0510 06:32:52.478807 27209 layer_factory.hpp:77] Creating layer bn5b_branch2c
I0510 06:32:52.478829 27209 net.cpp:100] Creating Layer bn5b_branch2c
I0510 06:32:52.478847 27209 net.cpp:444] bn5b_branch2c <- res5b_branch2c
I0510 06:32:52.478871 27209 net.cpp:405] bn5b_branch2c -> res5b_branch2c (in-place)
I0510 06:32:52.479280 27209 net.cpp:150] Setting up bn5b_branch2c
I0510 06:32:52.479310 27209 net.cpp:157] Top shape: 1 2048 14 14 (401408)
I0510 06:32:52.479324 27209 net.cpp:165] Memory required for data: 369897484
I0510 06:32:52.479346 27209 layer_factory.hpp:77] Creating layer scale5b_branch2c
I0510 06:32:52.479369 27209 net.cpp:100] Creating Layer scale5b_branch2c
I0510 06:32:52.479387 27209 net.cpp:444] scale5b_branch2c <- res5b_branch2c
I0510 06:32:52.479405 27209 net.cpp:405] scale5b_branch2c -> res5b_branch2c (in-place)
I0510 06:32:52.479501 27209 layer_factory.hpp:77] Creating layer scale5b_branch2c
I0510 06:32:52.479735 27209 net.cpp:150] Setting up scale5b_branch2c
I0510 06:32:52.479763 27209 net.cpp:157] Top shape: 1 2048 14 14 (401408)
I0510 06:32:52.479779 27209 net.cpp:165] Memory required for data: 371503116
I0510 06:32:52.479799 27209 layer_factory.hpp:77] Creating layer res5b
I0510 06:32:52.479817 27209 net.cpp:100] Creating Layer res5b
I0510 06:32:52.479835 27209 net.cpp:444] res5b <- res5a_res5a_relu_0_split_1
I0510 06:32:52.479851 27209 net.cpp:444] res5b <- res5b_branch2c
I0510 06:32:52.479871 27209 net.cpp:418] res5b -> res5b
I0510 06:32:52.479925 27209 net.cpp:150] Setting up res5b
I0510 06:32:52.479950 27209 net.cpp:157] Top shape: 1 2048 14 14 (401408)
I0510 06:32:52.479965 27209 net.cpp:165] Memory required for data: 373108748
I0510 06:32:52.479980 27209 layer_factory.hpp:77] Creating layer res5b_relu
I0510 06:32:52.480000 27209 net.cpp:100] Creating Layer res5b_relu
I0510 06:32:52.480017 27209 net.cpp:444] res5b_relu <- res5b
I0510 06:32:52.480033 27209 net.cpp:405] res5b_relu -> res5b (in-place)
I0510 06:32:52.480053 27209 net.cpp:150] Setting up res5b_relu
I0510 06:32:52.480072 27209 net.cpp:157] Top shape: 1 2048 14 14 (401408)
I0510 06:32:52.480087 27209 net.cpp:165] Memory required for data: 374714380
I0510 06:32:52.480100 27209 layer_factory.hpp:77] Creating layer res5b_res5b_relu_0_split
I0510 06:32:52.480118 27209 net.cpp:100] Creating Layer res5b_res5b_relu_0_split
I0510 06:32:52.480134 27209 net.cpp:444] res5b_res5b_relu_0_split <- res5b
I0510 06:32:52.480152 27209 net.cpp:418] res5b_res5b_relu_0_split -> res5b_res5b_relu_0_split_0
I0510 06:32:52.480180 27209 net.cpp:418] res5b_res5b_relu_0_split -> res5b_res5b_relu_0_split_1
I0510 06:32:52.480260 27209 net.cpp:150] Setting up res5b_res5b_relu_0_split
I0510 06:32:52.480288 27209 net.cpp:157] Top shape: 1 2048 14 14 (401408)
I0510 06:32:52.480304 27209 net.cpp:157] Top shape: 1 2048 14 14 (401408)
I0510 06:32:52.480319 27209 net.cpp:165] Memory required for data: 377925644
I0510 06:32:52.480334 27209 layer_factory.hpp:77] Creating layer res5c_branch2a
I0510 06:32:52.480362 27209 net.cpp:100] Creating Layer res5c_branch2a
I0510 06:32:52.480381 27209 net.cpp:444] res5c_branch2a <- res5b_res5b_relu_0_split_0
I0510 06:32:52.480401 27209 net.cpp:418] res5c_branch2a -> res5c_branch2a
I0510 06:32:52.483810 27209 net.cpp:150] Setting up res5c_branch2a
I0510 06:32:52.483865 27209 net.cpp:157] Top shape: 1 512 14 14 (100352)
I0510 06:32:52.483885 27209 net.cpp:165] Memory required for data: 378327052
I0510 06:32:52.483906 27209 layer_factory.hpp:77] Creating layer bn5c_branch2a
I0510 06:32:52.483927 27209 net.cpp:100] Creating Layer bn5c_branch2a
I0510 06:32:52.483945 27209 net.cpp:444] bn5c_branch2a <- res5c_branch2a
I0510 06:32:52.483963 27209 net.cpp:405] bn5c_branch2a -> res5c_branch2a (in-place)
I0510 06:32:52.484338 27209 net.cpp:150] Setting up bn5c_branch2a
I0510 06:32:52.484366 27209 net.cpp:157] Top shape: 1 512 14 14 (100352)
I0510 06:32:52.484382 27209 net.cpp:165] Memory required for data: 378728460
I0510 06:32:52.484405 27209 layer_factory.hpp:77] Creating layer scale5c_branch2a
I0510 06:32:52.484426 27209 net.cpp:100] Creating Layer scale5c_branch2a
I0510 06:32:52.484442 27209 net.cpp:444] scale5c_branch2a <- res5c_branch2a
I0510 06:32:52.484462 27209 net.cpp:405] scale5c_branch2a -> res5c_branch2a (in-place)
I0510 06:32:52.484549 27209 layer_factory.hpp:77] Creating layer scale5c_branch2a
I0510 06:32:52.484784 27209 net.cpp:150] Setting up scale5c_branch2a
I0510 06:32:52.484813 27209 net.cpp:157] Top shape: 1 512 14 14 (100352)
I0510 06:32:52.484829 27209 net.cpp:165] Memory required for data: 379129868
I0510 06:32:52.484848 27209 layer_factory.hpp:77] Creating layer res5c_branch2a_relu
I0510 06:32:52.484869 27209 net.cpp:100] Creating Layer res5c_branch2a_relu
I0510 06:32:52.484885 27209 net.cpp:444] res5c_branch2a_relu <- res5c_branch2a
I0510 06:32:52.484902 27209 net.cpp:405] res5c_branch2a_relu -> res5c_branch2a (in-place)
I0510 06:32:52.484922 27209 net.cpp:150] Setting up res5c_branch2a_relu
I0510 06:32:52.484939 27209 net.cpp:157] Top shape: 1 512 14 14 (100352)
I0510 06:32:52.484953 27209 net.cpp:165] Memory required for data: 379531276
I0510 06:32:52.484968 27209 layer_factory.hpp:77] Creating layer res5c_branch2b
I0510 06:32:52.484989 27209 net.cpp:100] Creating Layer res5c_branch2b
I0510 06:32:52.485004 27209 net.cpp:444] res5c_branch2b <- res5c_branch2a
I0510 06:32:52.485023 27209 net.cpp:418] res5c_branch2b -> res5c_branch2b
I0510 06:32:52.491725 27209 net.cpp:150] Setting up res5c_branch2b
I0510 06:32:52.491816 27209 net.cpp:157] Top shape: 1 512 14 14 (100352)
I0510 06:32:52.491834 27209 net.cpp:165] Memory required for data: 379932684
I0510 06:32:52.491858 27209 layer_factory.hpp:77] Creating layer bn5c_branch2b
I0510 06:32:52.491888 27209 net.cpp:100] Creating Layer bn5c_branch2b
I0510 06:32:52.491907 27209 net.cpp:444] bn5c_branch2b <- res5c_branch2b
I0510 06:32:52.491931 27209 net.cpp:405] bn5c_branch2b -> res5c_branch2b (in-place)
I0510 06:32:52.492346 27209 net.cpp:150] Setting up bn5c_branch2b
I0510 06:32:52.492375 27209 net.cpp:157] Top shape: 1 512 14 14 (100352)
I0510 06:32:52.492391 27209 net.cpp:165] Memory required for data: 380334092
I0510 06:32:52.492414 27209 layer_factory.hpp:77] Creating layer scale5c_branch2b
I0510 06:32:52.492439 27209 net.cpp:100] Creating Layer scale5c_branch2b
I0510 06:32:52.492456 27209 net.cpp:444] scale5c_branch2b <- res5c_branch2b
I0510 06:32:52.492476 27209 net.cpp:405] scale5c_branch2b -> res5c_branch2b (in-place)
I0510 06:32:52.492568 27209 layer_factory.hpp:77] Creating layer scale5c_branch2b
I0510 06:32:52.492815 27209 net.cpp:150] Setting up scale5c_branch2b
I0510 06:32:52.492846 27209 net.cpp:157] Top shape: 1 512 14 14 (100352)
I0510 06:32:52.492859 27209 net.cpp:165] Memory required for data: 380735500
I0510 06:32:52.492879 27209 layer_factory.hpp:77] Creating layer res5c_branch2b_relu
I0510 06:32:52.492900 27209 net.cpp:100] Creating Layer res5c_branch2b_relu
I0510 06:32:52.492916 27209 net.cpp:444] res5c_branch2b_relu <- res5c_branch2b
I0510 06:32:52.492933 27209 net.cpp:405] res5c_branch2b_relu -> res5c_branch2b (in-place)
I0510 06:32:52.492954 27209 net.cpp:150] Setting up res5c_branch2b_relu
I0510 06:32:52.492971 27209 net.cpp:157] Top shape: 1 512 14 14 (100352)
I0510 06:32:52.492985 27209 net.cpp:165] Memory required for data: 381136908
I0510 06:32:52.493000 27209 layer_factory.hpp:77] Creating layer res5c_branch2c
I0510 06:32:52.493021 27209 net.cpp:100] Creating Layer res5c_branch2c
I0510 06:32:52.493037 27209 net.cpp:444] res5c_branch2c <- res5c_branch2b
I0510 06:32:52.493055 27209 net.cpp:418] res5c_branch2c -> res5c_branch2c
I0510 06:32:52.496608 27209 net.cpp:150] Setting up res5c_branch2c
I0510 06:32:52.496649 27209 net.cpp:157] Top shape: 1 2048 14 14 (401408)
I0510 06:32:52.496665 27209 net.cpp:165] Memory required for data: 382742540
I0510 06:32:52.496685 27209 layer_factory.hpp:77] Creating layer bn5c_branch2c
I0510 06:32:52.496706 27209 net.cpp:100] Creating Layer bn5c_branch2c
I0510 06:32:52.496723 27209 net.cpp:444] bn5c_branch2c <- res5c_branch2c
I0510 06:32:52.496742 27209 net.cpp:405] bn5c_branch2c -> res5c_branch2c (in-place)
I0510 06:32:52.497122 27209 net.cpp:150] Setting up bn5c_branch2c
I0510 06:32:52.497150 27209 net.cpp:157] Top shape: 1 2048 14 14 (401408)
I0510 06:32:52.497165 27209 net.cpp:165] Memory required for data: 384348172
I0510 06:32:52.497189 27209 layer_factory.hpp:77] Creating layer scale5c_branch2c
I0510 06:32:52.497210 27209 net.cpp:100] Creating Layer scale5c_branch2c
I0510 06:32:52.497226 27209 net.cpp:444] scale5c_branch2c <- res5c_branch2c
I0510 06:32:52.497244 27209 net.cpp:405] scale5c_branch2c -> res5c_branch2c (in-place)
I0510 06:32:52.497333 27209 layer_factory.hpp:77] Creating layer scale5c_branch2c
I0510 06:32:52.497568 27209 net.cpp:150] Setting up scale5c_branch2c
I0510 06:32:52.497596 27209 net.cpp:157] Top shape: 1 2048 14 14 (401408)
I0510 06:32:52.497611 27209 net.cpp:165] Memory required for data: 385953804
I0510 06:32:52.497632 27209 layer_factory.hpp:77] Creating layer res5c
I0510 06:32:52.497653 27209 net.cpp:100] Creating Layer res5c
I0510 06:32:52.497673 27209 net.cpp:444] res5c <- res5b_res5b_relu_0_split_1
I0510 06:32:52.497691 27209 net.cpp:444] res5c <- res5c_branch2c
I0510 06:32:52.497714 27209 net.cpp:418] res5c -> res5c
I0510 06:32:52.497772 27209 net.cpp:150] Setting up res5c
I0510 06:32:52.497799 27209 net.cpp:157] Top shape: 1 2048 14 14 (401408)
I0510 06:32:52.497817 27209 net.cpp:165] Memory required for data: 387559436
I0510 06:32:52.497833 27209 layer_factory.hpp:77] Creating layer res5c_relu
I0510 06:32:52.497850 27209 net.cpp:100] Creating Layer res5c_relu
I0510 06:32:52.497866 27209 net.cpp:444] res5c_relu <- res5c
I0510 06:32:52.497882 27209 net.cpp:405] res5c_relu -> res5c (in-place)
I0510 06:32:52.497901 27209 net.cpp:150] Setting up res5c_relu
I0510 06:32:52.497920 27209 net.cpp:157] Top shape: 1 2048 14 14 (401408)
I0510 06:32:52.497933 27209 net.cpp:165] Memory required for data: 389165068
I0510 06:32:52.497948 27209 layer_factory.hpp:77] Creating layer rpn_conv/3x3
I0510 06:32:52.497972 27209 net.cpp:100] Creating Layer rpn_conv/3x3
I0510 06:32:52.497990 27209 net.cpp:444] rpn_conv/3x3 <- res4b22_res4b22_relu_0_split_2
I0510 06:32:52.498013 27209 net.cpp:418] rpn_conv/3x3 -> rpn/output
I0510 06:32:52.657596 27209 net.cpp:150] Setting up rpn_conv/3x3
I0510 06:32:52.657694 27209 net.cpp:157] Top shape: 1 512 14 14 (100352)
I0510 06:32:52.657714 27209 net.cpp:165] Memory required for data: 389566476
I0510 06:32:52.657745 27209 layer_factory.hpp:77] Creating layer rpn_relu/3x3
I0510 06:32:52.657778 27209 net.cpp:100] Creating Layer rpn_relu/3x3
I0510 06:32:52.657809 27209 net.cpp:444] rpn_relu/3x3 <- rpn/output
I0510 06:32:52.657840 27209 net.cpp:405] rpn_relu/3x3 -> rpn/output (in-place)
I0510 06:32:52.657867 27209 net.cpp:150] Setting up rpn_relu/3x3
I0510 06:32:52.657886 27209 net.cpp:157] Top shape: 1 512 14 14 (100352)
I0510 06:32:52.657898 27209 net.cpp:165] Memory required for data: 389967884
I0510 06:32:52.657913 27209 layer_factory.hpp:77] Creating layer rpn/output_rpn_relu/3x3_0_split
I0510 06:32:52.657930 27209 net.cpp:100] Creating Layer rpn/output_rpn_relu/3x3_0_split
I0510 06:32:52.657945 27209 net.cpp:444] rpn/output_rpn_relu/3x3_0_split <- rpn/output
I0510 06:32:52.657964 27209 net.cpp:418] rpn/output_rpn_relu/3x3_0_split -> rpn/output_rpn_relu/3x3_0_split_0
I0510 06:32:52.657985 27209 net.cpp:418] rpn/output_rpn_relu/3x3_0_split -> rpn/output_rpn_relu/3x3_0_split_1
I0510 06:32:52.658079 27209 net.cpp:150] Setting up rpn/output_rpn_relu/3x3_0_split
I0510 06:32:52.658102 27209 net.cpp:157] Top shape: 1 512 14 14 (100352)
I0510 06:32:52.658118 27209 net.cpp:157] Top shape: 1 512 14 14 (100352)
I0510 06:32:52.658131 27209 net.cpp:165] Memory required for data: 390770700
I0510 06:32:52.658145 27209 layer_factory.hpp:77] Creating layer rpn_cls_score
I0510 06:32:52.658171 27209 net.cpp:100] Creating Layer rpn_cls_score
I0510 06:32:52.658187 27209 net.cpp:444] rpn_cls_score <- rpn/output_rpn_relu/3x3_0_split_0
I0510 06:32:52.658206 27209 net.cpp:418] rpn_cls_score -> rpn_cls_score
I0510 06:32:52.658993 27209 net.cpp:150] Setting up rpn_cls_score
I0510 06:32:52.659023 27209 net.cpp:157] Top shape: 1 18 14 14 (3528)
I0510 06:32:52.659037 27209 net.cpp:165] Memory required for data: 390784812
I0510 06:32:52.659057 27209 layer_factory.hpp:77] Creating layer rpn_bbox_pred
I0510 06:32:52.659080 27209 net.cpp:100] Creating Layer rpn_bbox_pred
I0510 06:32:52.659096 27209 net.cpp:444] rpn_bbox_pred <- rpn/output_rpn_relu/3x3_0_split_1
I0510 06:32:52.659117 27209 net.cpp:418] rpn_bbox_pred -> rpn_bbox_pred
I0510 06:32:52.660184 27209 net.cpp:150] Setting up rpn_bbox_pred
I0510 06:32:52.660215 27209 net.cpp:157] Top shape: 1 36 14 14 (7056)
I0510 06:32:52.660231 27209 net.cpp:165] Memory required for data: 390813036
I0510 06:32:52.660250 27209 layer_factory.hpp:77] Creating layer rpn_cls_score_reshape
I0510 06:32:52.660279 27209 net.cpp:100] Creating Layer rpn_cls_score_reshape
I0510 06:32:52.660295 27209 net.cpp:444] rpn_cls_score_reshape <- rpn_cls_score
I0510 06:32:52.660315 27209 net.cpp:418] rpn_cls_score_reshape -> rpn_cls_score_reshape
I0510 06:32:52.660377 27209 net.cpp:150] Setting up rpn_cls_score_reshape
I0510 06:32:52.660403 27209 net.cpp:157] Top shape: 1 2 126 14 (3528)
I0510 06:32:52.660419 27209 net.cpp:165] Memory required for data: 390827148
I0510 06:32:52.660434 27209 layer_factory.hpp:77] Creating layer rpn_cls_prob
I0510 06:32:52.660450 27209 net.cpp:100] Creating Layer rpn_cls_prob
I0510 06:32:52.660465 27209 net.cpp:444] rpn_cls_prob <- rpn_cls_score_reshape
I0510 06:32:52.660485 27209 net.cpp:418] rpn_cls_prob -> rpn_cls_prob
I0510 06:32:52.660619 27209 net.cpp:150] Setting up rpn_cls_prob
I0510 06:32:52.660643 27209 net.cpp:157] Top shape: 1 2 126 14 (3528)
I0510 06:32:52.660658 27209 net.cpp:165] Memory required for data: 390841260
I0510 06:32:52.660672 27209 layer_factory.hpp:77] Creating layer rpn_cls_prob_reshape
I0510 06:32:52.660692 27209 net.cpp:100] Creating Layer rpn_cls_prob_reshape
I0510 06:32:52.660708 27209 net.cpp:444] rpn_cls_prob_reshape <- rpn_cls_prob
I0510 06:32:52.660727 27209 net.cpp:418] rpn_cls_prob_reshape -> rpn_cls_prob_reshape
I0510 06:32:52.660784 27209 net.cpp:150] Setting up rpn_cls_prob_reshape
I0510 06:32:52.660809 27209 net.cpp:157] Top shape: 1 18 14 14 (3528)
I0510 06:32:52.660822 27209 net.cpp:165] Memory required for data: 390855372
I0510 06:32:52.660837 27209 layer_factory.hpp:77] Creating layer proposal
I0510 06:32:52.661696 27209 net.cpp:100] Creating Layer proposal
I0510 06:32:52.661731 27209 net.cpp:444] proposal <- rpn_cls_prob_reshape
I0510 06:32:52.661748 27209 net.cpp:444] proposal <- rpn_bbox_pred
I0510 06:32:52.661772 27209 net.cpp:444] proposal <- im_info
I0510 06:32:52.661795 27209 net.cpp:418] proposal -> rois
I0510 06:32:52.662916 27209 net.cpp:150] Setting up proposal
I0510 06:32:52.662953 27209 net.cpp:157] Top shape: 1 5 (5)
I0510 06:32:52.662969 27209 net.cpp:165] Memory required for data: 390855392
I0510 06:32:52.662984 27209 layer_factory.hpp:77] Creating layer rois_proposal_0_split
I0510 06:32:52.663002 27209 net.cpp:100] Creating Layer rois_proposal_0_split
I0510 06:32:52.663018 27209 net.cpp:444] rois_proposal_0_split <- rois
I0510 06:32:52.663036 27209 net.cpp:418] rois_proposal_0_split -> rois_proposal_0_split_0
I0510 06:32:52.663058 27209 net.cpp:418] rois_proposal_0_split -> rois_proposal_0_split_1
I0510 06:32:52.663132 27209 net.cpp:150] Setting up rois_proposal_0_split
I0510 06:32:52.663158 27209 net.cpp:157] Top shape: 1 5 (5)
I0510 06:32:52.663174 27209 net.cpp:157] Top shape: 1 5 (5)
I0510 06:32:52.663188 27209 net.cpp:165] Memory required for data: 390855432
I0510 06:32:52.663203 27209 layer_factory.hpp:77] Creating layer conv_new_1
I0510 06:32:52.663224 27209 net.cpp:100] Creating Layer conv_new_1
I0510 06:32:52.663240 27209 net.cpp:444] conv_new_1 <- res5c
I0510 06:32:52.663259 27209 net.cpp:418] conv_new_1 -> conv_new_1
I0510 06:32:52.735213 27209 net.cpp:150] Setting up conv_new_1
I0510 06:32:52.735309 27209 net.cpp:157] Top shape: 1 1024 14 14 (200704)
I0510 06:32:52.735327 27209 net.cpp:165] Memory required for data: 391658248
I0510 06:32:52.735357 27209 layer_factory.hpp:77] Creating layer conv_new_1_relu
I0510 06:32:52.735383 27209 net.cpp:100] Creating Layer conv_new_1_relu
I0510 06:32:52.735401 27209 net.cpp:444] conv_new_1_relu <- conv_new_1
I0510 06:32:52.735422 27209 net.cpp:405] conv_new_1_relu -> conv_new_1 (in-place)
I0510 06:32:52.735450 27209 net.cpp:150] Setting up conv_new_1_relu
I0510 06:32:52.735466 27209 net.cpp:157] Top shape: 1 1024 14 14 (200704)
I0510 06:32:52.735484 27209 net.cpp:165] Memory required for data: 392461064
I0510 06:32:52.735502 27209 layer_factory.hpp:77] Creating layer conv_new_1_conv_new_1_relu_0_split
I0510 06:32:52.735522 27209 net.cpp:100] Creating Layer conv_new_1_conv_new_1_relu_0_split
I0510 06:32:52.735538 27209 net.cpp:444] conv_new_1_conv_new_1_relu_0_split <- conv_new_1
I0510 06:32:52.735554 27209 net.cpp:418] conv_new_1_conv_new_1_relu_0_split -> conv_new_1_conv_new_1_relu_0_split_0
I0510 06:32:52.735575 27209 net.cpp:418] conv_new_1_conv_new_1_relu_0_split -> conv_new_1_conv_new_1_relu_0_split_1
I0510 06:32:52.735673 27209 net.cpp:150] Setting up conv_new_1_conv_new_1_relu_0_split
I0510 06:32:52.735697 27209 net.cpp:157] Top shape: 1 1024 14 14 (200704)
I0510 06:32:52.735713 27209 net.cpp:157] Top shape: 1 1024 14 14 (200704)
I0510 06:32:52.735725 27209 net.cpp:165] Memory required for data: 394066696
I0510 06:32:52.735740 27209 layer_factory.hpp:77] Creating layer rfcn_cls
I0510 06:32:52.735765 27209 net.cpp:100] Creating Layer rfcn_cls
I0510 06:32:52.735781 27209 net.cpp:444] rfcn_cls <- conv_new_1_conv_new_1_relu_0_split_0
I0510 06:32:52.735806 27209 net.cpp:418] rfcn_cls -> rfcn_cls
I0510 06:32:52.771248 27209 net.cpp:150] Setting up rfcn_cls
I0510 06:32:52.771325 27209 net.cpp:157] Top shape: 1 1029 14 14 (201684)
I0510 06:32:52.771342 27209 net.cpp:165] Memory required for data: 394873432
I0510 06:32:52.771365 27209 layer_factory.hpp:77] Creating layer rfcn_bbox
I0510 06:32:52.771394 27209 net.cpp:100] Creating Layer rfcn_bbox
I0510 06:32:52.771412 27209 net.cpp:444] rfcn_bbox <- conv_new_1_conv_new_1_relu_0_split_1
I0510 06:32:52.771435 27209 net.cpp:418] rfcn_bbox -> rfcn_bbox
I0510 06:32:52.786428 27209 net.cpp:150] Setting up rfcn_bbox
I0510 06:32:52.786480 27209 net.cpp:157] Top shape: 1 392 14 14 (76832)
I0510 06:32:52.786497 27209 net.cpp:165] Memory required for data: 395180760
I0510 06:32:52.786519 27209 layer_factory.hpp:77] Creating layer psroipooled_cls_rois
I0510 06:32:52.786542 27209 net.cpp:100] Creating Layer psroipooled_cls_rois
I0510 06:32:52.786559 27209 net.cpp:444] psroipooled_cls_rois <- rfcn_cls
I0510 06:32:52.786587 27209 net.cpp:444] psroipooled_cls_rois <- rois_proposal_0_split_0
I0510 06:32:52.786608 27209 net.cpp:418] psroipooled_cls_rois -> psroipooled_cls_rois
I0510 06:32:52.786629 27209 psroi_pooling_layer.cpp:26] Spatial scale: 0.0625
I0510 06:32:52.786728 27209 net.cpp:150] Setting up psroipooled_cls_rois
I0510 06:32:52.786754 27209 net.cpp:157] Top shape: 1 21 7 7 (1029)
I0510 06:32:52.786769 27209 net.cpp:165] Memory required for data: 395184876
I0510 06:32:52.786784 27209 layer_factory.hpp:77] Creating layer ave_cls_score_rois
I0510 06:32:52.786803 27209 net.cpp:100] Creating Layer ave_cls_score_rois
I0510 06:32:52.786818 27209 net.cpp:444] ave_cls_score_rois <- psroipooled_cls_rois
I0510 06:32:52.786837 27209 net.cpp:418] ave_cls_score_rois -> cls_score
I0510 06:32:52.786897 27209 net.cpp:150] Setting up ave_cls_score_rois
I0510 06:32:52.786921 27209 net.cpp:157] Top shape: 1 21 1 1 (21)
I0510 06:32:52.786934 27209 net.cpp:165] Memory required for data: 395184960
I0510 06:32:52.786948 27209 layer_factory.hpp:77] Creating layer psroipooled_loc_rois
I0510 06:32:52.786968 27209 net.cpp:100] Creating Layer psroipooled_loc_rois
I0510 06:32:52.786984 27209 net.cpp:444] psroipooled_loc_rois <- rfcn_bbox
I0510 06:32:52.787000 27209 net.cpp:444] psroipooled_loc_rois <- rois_proposal_0_split_1
I0510 06:32:52.787017 27209 net.cpp:418] psroipooled_loc_rois -> psroipooled_loc_rois
I0510 06:32:52.787036 27209 psroi_pooling_layer.cpp:26] Spatial scale: 0.0625
I0510 06:32:52.787116 27209 net.cpp:150] Setting up psroipooled_loc_rois
I0510 06:32:52.787138 27209 net.cpp:157] Top shape: 1 8 7 7 (392)
I0510 06:32:52.787153 27209 net.cpp:165] Memory required for data: 395186528
I0510 06:32:52.787166 27209 layer_factory.hpp:77] Creating layer ave_bbox_pred_rois
I0510 06:32:52.787185 27209 net.cpp:100] Creating Layer ave_bbox_pred_rois
I0510 06:32:52.787201 27209 net.cpp:444] ave_bbox_pred_rois <- psroipooled_loc_rois
I0510 06:32:52.787219 27209 net.cpp:418] ave_bbox_pred_rois -> bbox_pred_pre
I0510 06:32:52.787272 27209 net.cpp:150] Setting up ave_bbox_pred_rois
I0510 06:32:52.787298 27209 net.cpp:157] Top shape: 1 8 1 1 (8)
I0510 06:32:52.787312 27209 net.cpp:165] Memory required for data: 395186560
I0510 06:32:52.787327 27209 layer_factory.hpp:77] Creating layer cls_prob
I0510 06:32:52.787345 27209 net.cpp:100] Creating Layer cls_prob
I0510 06:32:52.787360 27209 net.cpp:444] cls_prob <- cls_score
I0510 06:32:52.787377 27209 net.cpp:418] cls_prob -> cls_prob_pre
I0510 06:32:52.787515 27209 net.cpp:150] Setting up cls_prob
I0510 06:32:52.787545 27209 net.cpp:157] Top shape: 1 21 1 1 (21)
I0510 06:32:52.787559 27209 net.cpp:165] Memory required for data: 395186644
I0510 06:32:52.787575 27209 layer_factory.hpp:77] Creating layer cls_prob_reshape
I0510 06:32:52.787595 27209 net.cpp:100] Creating Layer cls_prob_reshape
I0510 06:32:52.787609 27209 net.cpp:444] cls_prob_reshape <- cls_prob_pre
I0510 06:32:52.787626 27209 net.cpp:418] cls_prob_reshape -> cls_prob
I0510 06:32:52.787686 27209 net.cpp:150] Setting up cls_prob_reshape
I0510 06:32:52.787708 27209 net.cpp:157] Top shape: 1 21 (21)
I0510 06:32:52.787724 27209 net.cpp:165] Memory required for data: 395186728
I0510 06:32:52.787737 27209 layer_factory.hpp:77] Creating layer bbox_pred_reshape
I0510 06:32:52.787755 27209 net.cpp:100] Creating Layer bbox_pred_reshape
I0510 06:32:52.787770 27209 net.cpp:444] bbox_pred_reshape <- bbox_pred_pre
I0510 06:32:52.787789 27209 net.cpp:418] bbox_pred_reshape -> bbox_pred
I0510 06:32:52.787847 27209 net.cpp:150] Setting up bbox_pred_reshape
I0510 06:32:52.787870 27209 net.cpp:157] Top shape: 1 8 (8)
I0510 06:32:52.787884 27209 net.cpp:165] Memory required for data: 395186760
I0510 06:32:52.787899 27209 net.cpp:228] bbox_pred_reshape does not need backward computation.
I0510 06:32:52.787914 27209 net.cpp:228] cls_prob_reshape does not need backward computation.
I0510 06:32:52.787928 27209 net.cpp:228] cls_prob does not need backward computation.
I0510 06:32:52.787943 27209 net.cpp:228] ave_bbox_pred_rois does not need backward computation.
…
